models/candy.pth (torch_old, 973145 bytes, 85 tensors)

conv1.weight f4 [32, 3, 9, 9]
0	0xbc0a0d62	-0.008426042
1	0xbd52d737	-0.051474776
2	0x3d5a071f	0.053229447
3	0xbda4297b	-0.08015724
4	0xbd9690a2	-0.07351805
5	0xbd9eea72	-0.07759561
6	0xbc957c52	-0.018247757
7	0x3cdb8b16	0.02679972
8	0xbd1b148f	-0.037861403
9	0x3b828067	0.003982592
10	0x3ac94910	0.0015356857
11	0xbe01a096	-0.12658915
12	0xbda5af97	-0.08090132
13	0xbd8e44c6	-0.06946711
14	0xbc9bd899	-0.01902418
15	0xbc0e533b	-0.008686836
16	0x3c3a94d3	0.0113880215
17	0x3cd16d21	0.025564732
18	0xbd86e226	-0.06586103
19	0xbdd22a2e	-0.102619514
20	0xbdc0d5d3	-0.09415784
21	0x3b5791ea	0.0032893368
22	0x3d9dab28	0.07698661
23	0xbc19fc6d	-0.009398562
24	0xbca79556	-0.020456951
25	0xbd100d95	-0.035169203
26	0xbbe368f3	-0.006940001
27	0xbddfbf33	-0.1092514
28	0xbe209aaf	-0.15684007
29	0x3abe7f4b	0.0014533786
30	0x3e48261e	0.1954579
31	0x3ee0e684	0.4392587
32	0x3ea0c063	0.3139678
33	0x3dfbaba5	0.12288598
34	0x3db765d8	0.08954972
35	0xbb927127	-0.004469055
36	0xbe0ea0fe	-0.13928601
37	0xbe79d223	-0.24396567
38	0x3e7ad7fb	0.24496453
39	0x3f1519ab	0.5824229
40	0x3d960939	0.07325978
41	0x3e80d3d0	0.251616
42	0x3db0d07d	0.08633516
43	0x3d14380d	0.036186267
44	0xbc5a673b	-0.013330276
45	0xbda9906e	-0.08279501
46	0xbde6d599	-0.11271209
47	0x3e7d9b4f	0.24766277
48	0x3d8f3326	0.06992178
49	0xbf89b1e2	-1.075741
50	0xbd19ef3d	-0.03758167
51	0x3db516b6	0.088422224
52	0xbcecb417	-0.028894467
53	0x3d01ccbe	0.031689398
54	0x3b864677	0.0040977555
55	0xbd1ce35d	-0.038302768
56	0x3daded0e	0.0849248
57	0x3e227bf5	0.15867598
58	0xbe83906e	-0.2569613
59	0x3de2f57f	0.11081981
60	0x3e311c8d	0.17296048
61	0x3d395512	0.045247145
62	0x3d1a2c90	0.037640154
63	0xbda5454e	-0.080698594
64	0x3d8fb69d	0.070172526
65	0x3c9fa91f	0.019489823
66	0x3e0cfaa1	0.13767482
67	0x3d07a9c3	0.03312088
68	0xbc3d90d8	-0.011570178
69	0x3d7fd76e	0.06246131
70	0xbcdddba5	-0.027082274
71	0xbb0092a1	-0.0019618648
72	0xbdfa1dd8	-0.122127235
73	0x3d82adde	0.06380819
74	0x3d5975ad	0.05309074
75	0xbba39ee0	-0.0049933046
76	0xbadf5c9a	-0.0017041147
77	0x3b54597a	0.0032401965
78	0x3cb547a1	0.022128882
79	0x3cb09150	0.021553665
80	0xbd79a2dd	-0.060946334
81	0xbd953c80	-0.0728693
82	0xbdcd799f	-0.10032963
83	0xbd6166a7	-0.055029538
84	0xbd5b5e4a	-0.053556718
85	0xbd7b1867	-0.06130257
86	0xbd88572f	-0.06657254
87	0xbe02bd84	-0.12767607
88	0xbc365f79	-0.011131161
89	0xbd938117	-0.07202356
90	0xbd86d745	-0.06584028
91	0xbd752628	-0.05985084
92	0xbca3c4a4	-0.019991226
93	0xba3628b4	-0.0006948814
94	0x3d2bfb24	0.041987553
95	0xbd58c25d	-0.052919734
96	0xbd544e65	-0.051832575
97	0xbd453e3e	-0.048155062
98	0xbd6af1c1	-0.05735946
99	0xbc277d70	-0.010222778
100	0x3bb849c0	0.005624026
101	0x3c731e8a	0.014838824
102	0x3cf4f35d	0.0299012
103	0xbde6ed23	-0.11275699
104	0xbc0a3c6e	-0.008437259
105	0xbca03158	-0.019554779
106	0xbcfc5358	-0.03080146
107	0x3c6162a0	0.013756424
108	0xbd9ac27f	-0.075566284
109	0xbd2204ea	-0.039555468
110	0xbce20fab	-0.027595362
111	0x3dddd1e4	0.10831049
112	0x3e6dac78	0.23210323
113	0x3dca16f2	0.09867658
114	0x3de0e60c	0.10981378
115	0x3d834f68	0.0641163
116	0xbc310e8d	-0.010806692
117	0xbd0927dc	-0.03348528
118	0xbe0502a5	-0.1298929
119	0x3e563005	0.20916755
120	0x3f2711f3	0.65261763
121	0xbe297aaf	-0.16550706
122	0x3e3ae1ea	0.18250242
123	0x3df8abbb	0.1214213
124	0x3d9b760a	0.075908735
125	0x3cb865b5	0.022509435
126	0xbd159a90	-0.036524355
127	0xbdd4e3cb	-0.103950106
128	0x3e019448	0.12654221
129	0x3d2d9907	0.042382266
130	0xbfbef0c3	-1.4917225
131	0xbdc93b24	-0.09825733
132	0x3df47d37	0.11937945
133	0xbbc118dc	-0.005892856
134	0xbd883fd7	-0.066528015
135	0xbe154e0f	-0.14580558
136	0xbd992477	-0.07477658
137	0xbd7b35eb	-0.061330717
138	0x3dbe5eb0	0.09295404
139	0xbeb2ba69	-0.34907845
140	0x3e07fc6f	0.1327989
141	0x3d7c0448	0.06152752
142	0xbc886b73	-0.016652798
143	0x3b6d76ac	0.0036234064
144	0xbdd39c0e	-0.103324994
145	0xbd61ac56	-0.055095993
146	0xbd11d669	-0.035604868
147	0x3c66a860	0.01407823
148	0xbd294885	-0.041328926
149	0x3cbd0aba	0.023076404
150	0x3d9eee1f	0.07760262
151	0xbdedff1d	-0.116209246
152	0xbda2eab9	-0.07954926
153	0xbd354785	-0.04425766
154	0x3d04efba	0.032455184
155	0x3c756d88	0.014979728
156	0xbd7992f0	-0.060931146
157	0xbe1f3bb8	-0.15550125
158	0xbdd9113e	-0.10598992
159	0xbd4de288	-0.050264865
160	0x3c1d8af2	0.009615647
161	0xbdad9ec0	-0.08477545
162	0xbcbfa42b	-0.023393711
163	0x3d8668eb	0.0656298
164	0x3d7714bb	0.060322504
165	0x3d848c56	0.064720795
166	0x3e694003	0.22778325
167	0x3dcbbde0	0.09948325
168	0x3da6b02c	0.08139071
169	0x3e0b2e28	0.13591826
170	0x3dc7a490	0.09748185
171	0x3d7a6d73	0.061139535
172	0x3e2d1dad	0.16905852
173	0x3d9cbd11	0.07653249
174	0x3e52d7ad	0.20590086
175	0x3e2039ba	0.15647021
176	0x3db11b64	0.086478025
177	0x3cd79f5a	0.026321102
178	0x3d6651ea	0.056230463
179	0x3d093cdb	0.033505302
180	0x3e24f52e	0.16109154
181	0x3df5d6bf	0.1200385
182	0x3db1aca0	0.08675504
183	0xbcbb29eb	-0.022847136
184	0xbe08b31f	-0.1334958
185	0xbe165dfc	-0.1468429
186	0xbd882fb3	-0.06649723
187	0xbd3dedd5	-0.046369392
188	0x3de6847c	0.11255738
189	0x3e14dc80	0.14537239
190	0x3dd6cebb	0.104886495
191	0xbd68f1ed	-0.056871343
192	0xbed7e587	-0.42167303
193	0xbf0c93fe	-0.5491332
194	0xbee23892	-0.44183785
195	0xbe34a5b2	-0.17641333
196	0xbce06026	-0.027389597
197	0x3cf7546f	0.030191628
198	0x3e2cdae3	0.16880374
199	0x3d887d78	0.06664556
200	0x3bd83c37	0.006598975
201	0x3dc4e478	0.096138895
202	0xbf375cc7	-0.7162594
203	0xbe9ab62f	-0.3021712
204	0xbe379fd6	-0.17932066
205	0x3b96eff6	0.0046062423
206	0xbc64dff4	-0.01396941
207	0x3e0d9e9d	0.13830037
208	0x3d806097	0.06268423
209	0x3d526e31	0.051374618
210	0x3e2606be	0.1621351
211	0xbf7ac5b7	-0.9795794
212	0x3d751fdb	0.059844833
213	0xbc9e2c3d	-0.019308204
214	0xbda01254	-0.07815996
215	0x3d80e986	0.06294541
216	0x3d594bed	0.053050924
217	0x3d389d44	0.045071855
218	0xbd610935	-0.05494042
219	0x3e9bd5d9	0.3043659
220	0x3e3231b5	0.17401774
221	0x3e9eb8a5	0.31000248
222	0x3d81918e	0.063265905
223	0x3d87b920	0.06627107
224	0x3df49cd2	0.119439736
225	0x3d156940	0.036477327
226	0x3d681966	0.056664847
227	0xbcf74e5a	-0.030188728
228	0x3d8714e5	0.06595782
229	0x3d6ced67	0.057843592
230	0xbc86430c	-0.016389392
231	0xbcad4986	-0.021153223
232	0xbdb6647b	-0.08905884
233	0xbbc00c3a	-0.0058608325
234	0x3d84f518	0.064920604
235	0x3d5b8de1	0.053602103
236	0xbbcca98d	-0.006245798
237	0x3cdd6443	0.027025348
238	0xbc3ce46e	-0.011529071
239	0xbb40847e	-0.0029375846
240	0x3d766711	0.060156886
241	0xbc032f39	-0.008006864
242	0x3de88009	0.11352546
243	0x3d9d9895	0.07695118
244	0x3cf80751	0.030276926
245	0xbb688eeb	-0.0035485576
246	0xbda35667	-0.07975464
247	0x3d8dba11	0.06920255
248	0x3cb05f83	0.021529919
249	0x3d7fa922	0.062417157
250	0x3dc44d57	0.09585064
251	0x3d462b3d	0.04838108
252	0x3c1701d0	0.009216741
253	0xbd5f2bcd	-0.05448513
254	0xbe25f8b1	-0.1620815
255	0x3db0acdb	0.086267196

in1.weight f4 [32]
0	0x3eb3f719	0.35149458
1	0x3eb787c1	0.3584576
2	0x3e98952a	0.29801303
3	0x3f0f868c	0.5606468
4	0x3efbe31d	0.4919671
5	0x3ea73ee9	0.32665184
6	0x3eb15069	0.3463166
7	0x3f146e58	0.5798087
8	0x3ecf58da	0.40497476
9	0x3ea9db32	0.33175045
10	0x3e5213f9	0.20515431
11	0x3ecf21b0	0.4045539
12	0x3e9c8064	0.30566704
13	0x3ead9a71	0.33906892
14	0x3f14b48b	0.58087987
15	0x3f57d006	0.84301794
16	0x3ea7c9f5	0.32771268
17	0x3f16143d	0.5862463
18	0x3e5e5fea	0.21716276
19	0x3f0498be	0.51795566
20	0x3efcfc8b	0.49411425
21	0x3f0b6f84	0.54467034
22	0x3e5e4b1c	0.2170834
23	0x3ec781d0	0.38966227
24	0x3e81ea3f	0.25374028
25	0x3ef4ada6	0.47788733
26	0x3e67e9ff	0.22647856
27	0x3e9820de	0.29712576
28	0x3eddca29	0.43318298
29	0x3ebe1b0c	0.3713001
30	0x3f112029	0.566897
31	0x3f10b440	0.5652504

in1.bias f4 [32]
0	0xbdded05d	-0.10879586
1	0x3fb2bdfe	1.3964231
2	0x3f41b711	0.7566996
3	0x3e8b87d3	0.27252063
4	0x3ed51be2	0.41622835
5	0x3f5cf972	0.86318123
6	0x400e4eec	2.223567
7	0x3f0bc261	0.54593474
8	0x3f68112c	0.906512
9	0x3f50d482	0.8157426
10	0x3e82fb20	0.25582218
11	0xbe27a797	-0.16372524
12	0x3f9503d0	1.1641788
13	0x3e539ad2	0.20664528
14	0xbe3b61fd	-0.18299098
15	0xbee68503	-0.45023355
16	0x3ea9ee83	0.33189783
17	0xbe9d3379	-0.30703333
18	0x3f3a6b66	0.72820127
19	0x3ecf0bf9	0.40438822
20	0x3ef3a044	0.4758321
21	0x3d642771	0.055701677
22	0xbe0cb8ff	-0.13742445
23	0xbdc32060	-0.095276594
24	0x3f0be5a4	0.5464728
25	0x3e85fae7	0.26167986
26	0x3f46c99c	0.7765138
27	0xbdab9a50	-0.08379042
28	0x3ec46ea5	0.38365665
29	0xbe9477c3	-0.2899762
30	0x3edf956c	0.43668687
31	0x3e1e6e26	0.15471706

conv2.conv1.weight f4 [32, 32, 1, 1]
0	0x3e85e727	0.26152918
1	0x3d4ac724	0.04950632
2	0x3eb3eb29	0.3514035
3	0xbd08bcb1	-0.033383075
4	0x3e23b222	0.15985921
5	0x3e2b90ef	0.16754507
6	0xbd5eafc5	-0.054366846
7	0xbdf52277	-0.11969464
8	0xbe9b0bd0	-0.3028245
9	0x3c987007	0.018608106
10	0xbea5a956	-0.32355756
11	0x3d74f24d	0.05980139
12	0xbf236aac	-0.63834643
13	0xbea7e650	-0.32792902
14	0xbe6004e2	-0.21876863
15	0xbd76637b	-0.060153466
16	0xbd31be6b	-0.043394487
17	0x3e72232a	0.23646227
18	0x3de625db	0.11237689
19	0x3dde87ab	0.1086572
20	0x3cb8a56c	0.022539817
21	0x3df87be4	0.12133005
22	0x3e4c2923	0.19937567
23	0x3e35a9a3	0.17740493
24	0x3da11b65	0.07866553
25	0x3c34cbbd	0.011034903
26	0xbea4f20b	-0.32215914
27	0x3d14e5de	0.03635203
28	0x3e6b6bd2	0.22990349
29	0x3e996cb3	0.29965743
30	0xbe9c2537	-0.30497143
31	0x3dd6790e	0.10472308
32	0xbd1da074	-0.0384831
33	0x3d87c093	0.066285275
34	0xbd75a918	-0.059975713
35	0x3d018e10	0.031629622
36	0x3ed36f98	0.41296077
37	0xbdcd428c	-0.100224584
38	0x3e53d04b	0.20684926
39	0xbd952ad1	-0.07283557
40	0x3e1572f5	0.14594634
41	0x3f135753	0.5755512
42	0xbe043904	-0.12912375
43	0xbcc4e254	-0.024033703
44	0x3de6c180	0.11267376
45	0x3ebdca35	0.37068334
46	0xbe07bb75	-0.13255103
47	0x3cc83202	0.024437908
48	0xbdb45c45	-0.088066615
49	0xbe7a8994	-0.24466544
50	0x3e1360f7	0.14392458
51	0xbd871b8f	-0.06597053
52	0x3d5d8d18	0.054089636
53	0x3e00ac1f	0.12565659
54	0xbd8db58c	-0.06919393
55	0x3dabcd53	0.08388772
56	0x3e65ac91	0.2242911
57	0xbe9f2ec8	-0.3109038
58	0x3ed86c28	0.42270017
59	0x3d9973ad	0.074927665
60	0xbec57bc6	-0.38570994
61	0xbdbefd00	-0.093256
62	0xbe847f7f	-0.25878522
63	0xbe8e4c99	-0.27792814
64	0xbe865ac8	-0.26241136
65	0xbdda12a3	-0.10648086
66	0x3ec47710	0.38372087
67	0xbddd4c2a	-0.10805543
68	0xbe311b44	-0.17295557
69	0xbdbdf7a2	-0.09275748
70	0xbe024060	-0.1271987
71	0x3e4bfcb1	0.19920613
72	0x3e579b90	0.21055436
73	0x3d37f772	0.044913717
74	0x3daecec0	0.08535528
75	0xbd5d976c	-0.054099485
76	0x3f1ae715	0.60508853
77	0x3e993680	0.29924393
78	0x3d84e58c	0.06489095
79	0x3e1cb053	0.15301637
80	0xbcc48c7f	-0.023992775
81	0xbbe31e39	-0.006931093
82	0xbf2e73aa	-0.6814524
83	0xbe684f57	-0.22686516
84	0xbd25947d	-0.040424813
85	0xbd50b631	-0.050955
86	0x3dd7001b	0.10498067
87	0xbddb4527	-0.10706549
88	0xbd54c70f	-0.05194765
89	0x3b48ccca	0.0030639642
90	0xbac61dac	-0.0015115044
91	0xbd814a8b	-0.06313046
92	0xbec21a38	-0.37910628
93	0x3dfe8ecb	0.12429579
94	0x3e08fe3f	0.13378237
95	0xbd3cfde2	-0.04614056
96	0x3e52683c	0.20547575
97	0xbce10677	-0.027468903
98	0xbddf3c69	-0.10900194
99	0x3d2f9959	0.042870853
100	0x3e3ddc6d	0.18541117
101	0xbe9856ae	-0.2975363
102	0x3dfe0c7d	0.12404726
103	0xbe031d05	-0.12804039
104	0xbf274ccf	-0.65351576
105	0x3ec26158	0.37964892
106	0x3db5d03c	0.08877608
107	0x3c813401	0.015771868
108	0x3e0be861	0.13662864
109	0x3a8d1dc7	0.0010766321
110	0xbe21668d	-0.15761776
111	0x3ccaa4c4	0.02473677
112	0xbda5d159	-0.080965705
113	0x3e307afe	0.17234418
114	0x3ed6a578	0.41923118
115	0x3e3b7d43	0.18309502
116	0x3caaee92	0.020865712
117	0x3e2413ec	0.16023225
118	0xbd938e83	-0.07204916
119	0xbb036a73	-0.0020052462
120	0x3da932a3	0.08261611
121	0x3e11a44b	0.14222829
122	0x3eef3619	0.4672096
123	0x3ccc2641	0.024920585
124	0x3e1fe619	0.15615119
125	0xbe239405	-0.15974434
126	0xb6893d63	-4.0900645e-06
127	0x3d8d17c5	0.06889299
128	0x3e25b6a3	0.16182952
129	0xbe017c3b	-0.12645046
130	0xbe0d3e35	-0.13793261
131	0x3d964a4d	0.073383905
132	0x3e1191db	0.14215796
133	0x3e2a763d	0.16646667
134	0xbd7e9f07	-0.06216338
135	0x3ddcc59f	0.10779881
136	0xbdff2604	-0.12458423
137	0x3e2cf971	0.1689203
138	0xbde1cf7e	-0.11025904
139	0xbc388553	-0.011262256
140	0x3dcc0006	0.09960942
141	0xbd0ac0ef	-0.033875402
142	0x3e2bd605	0.1678086
143	0x3d9961e3	0.074893735
144	0x3d594a8b	0.053049605
145	0xbdebdce4	-0.11516741
146	0xbd5e7dc2	-0.05431915
147	0x3e005af0	0.1253469
148	0x3dc95a38	0.09831661
149	0xbe064bf6	-0.13114914
150	0x3da51715	0.08061043
151	0x3d907df9	0.070552774
152	0xbcb1d5ef	-0.021708457
153	0x3da7575f	0.081709616
154	0xbc6f1d8c	-0.014594447
155	0xbc581114	-0.0131876655
156	0x3c0e21eb	0.008675079
157	0x3dc0673e	0.09394692
158	0xbe2b5b6e	-0.16734096
159	0xbb6e1923	-0.00363309
160	0xbd4de40c	-0.05026631
161	0x3d807ed9	0.06274194
162	0x3ebfd43f	0.37466618
163	0x3d45e2d5	0.048312027
164	0xbddd5c7d	-0.10808656
165	0xbeb548c5	-0.3540708
166	0xbd34b61c	-0.044118986
167	0x3eedc3f3	0.4643856
168	0x3dd2d6b0	0.10294855
169	0x3e080fa3	0.13287215
170	0x3e8f7dd1	0.28025678
171	0x3dc53fc7	0.09631305
172	0x3dfbd1b9	0.12295861
173	0x3de92578	0.113841
174	0x3dc76c6c	0.09737477
175	0x3dca1e69	0.098690815
176	0x3d161949	0.036645208
177	0xbd3fd09b	-0.0468298
178	0x3cacfe55	0.021117369
179	0xbefce5b8	-0.49394011
180	0xbe561c76	-0.20909294
181	0xbc500e24	-0.012698684
182	0xbcf4d553	-0.029886877
183	0x3da63579	0.08115668
184	0xbd7878e5	-0.06066217
185	0x3da0b1d8	0.07846421
186	0x3e94a842	0.2903462
187	0xbe077ecf	-0.13231967
188	0xbe8ee766	-0.27910918
189	0x3cd28e15	0.025702516
190	0x3e29a8ee	0.16568348
191	0xbd09435f	-0.033511516
192	0x3e433017	0.19061314
193	0xbca96d48	-0.020681992
194	0x3eff1ea7	0.49828073
195	0xbda19742	-0.07890178
196	0x3d5e62b7	0.05429336
197	0x3ee407d3	0.4453722
198	0x3d28ce7d	0.041212548
199	0xbe5a09e3	-0.21292834
200	0xbe27bd07	-0.16380702
201	0xbc94f33a	-0.018182386
202	0xbe26fc6f	-0.16307233
203	0x3dfa8de0	0.12234092
204	0xbdf136a0	-0.11777997
205	0xbeee973d	-0.4659976
206	0x3be798a8	0.0070677586
207	0xbdcb44f4	-0.09925261
208	0x3d0f84fe	0.03503894
209	0x3e097e12	0.13426998
210	0xbe0cbfcc	-0.1374504
211	0x3e81075c	0.25200927
212	0x3dd336e3	0.10313203
213	0x3e4b101e	0.19830367
214	0xbd9f2876	-0.07771389
215	0x3d3aceb0	0.04560727
216	0xbe2cdbb1	-0.1688068
217	0x3eae8ce6	0.34091872
218	0xbe4c0a18	-0.19925725
219	0xbe46dcd0	-0.19420171
220	0x3f0615b9	0.52376896
221	0x3da7e377	0.08197682
222	0xbd29ec6e	-0.041485243
223	0x3d3fa3fd	0.04678725
224	0x3e59ba4f	0.21262477
225	0x3e805e3f	0.25071904
226	0xbc250760	-0.010072559
227	0x3da8d4ce	0.08243714
228	0x3e30c877	0.17263971
229	0x3d00fc11	0.03149039
230	0x3e1cb709	0.15304197
231	0x3e014a9c	0.12626117
232	0xbc24c727	-0.010057247
233	0x3d9b9d9c	0.07598421
234	0xbde23b17	-0.11046427
235	0x3e64a71a	0.22329369
236	0x3dc4d459	0.096108146
237	0x3de11e77	0.10992139
238	0x3e00288d	0.12515469
239	0x3f0db3d1	0.55352503
240	0x3de50532	0.111826316
241	0x3f2651b2	0.6496841
242	0x3c395ee5	0.0113141285
243	0x3d2f2965	0.042764086
244	0x3e4cdefb	0.20006935
245	0x3e9dc82a	0.30816776
246	0xbe69b594	-0.22823173
247	0x3de9bf0a	0.11413391
248	0xbda8de8f	-0.08245575
249	0x3e3bdb7c	0.18345445
250	0x3db0b50e	0.086282834
251	0xbcb0b0c3	-0.021568662
252	0x3dd0b7f1	0.10191334
253	0x3f28bef2	0.6591636
254	0x3eade8a6	0.3396656
255	0x3e458c64	0.19291836

conv2.in1.weight f4 [32]
0	0x3eb55c84	0.35422146
1	0x3d89c508	0.06727034
2	0x3d0dad8d	0.03458934
3	0x3e4f44ec	0.20241135
4	0xbb09d2cb	-0.0021030183
5	0x3d164698	0.036688417
6	0x3d7940fc	0.06085299
7	0x3edb1389	0.42788342
8	0x3f290bcd	0.6603363
9	0x3d25149d	0.04030286
10	0x3d368e80	0.044569492
11	0x3c4105c2	0.011781158
12	0x3d836f0e	0.064176664
13	0x3dc349ba	0.095355466
14	0x3e6bdb01	0.23032762
15	0x3ca15c8f	0.019697456
16	0x3f14a9e1	0.58071715
17	0x3c918940	0.017765641
18	0x3f2f2294	0.6841214
19	0x3e9cb260	0.3060484
20	0x3c855f08	0.016280666
21	0x3ec9f8b5	0.3944756
22	0x3f015f2f	0.50535864
23	0x3dd06132	0.101747885
24	0x3f514e46	0.8176006
25	0x3dd86bc8	0.10567433
26	0x3e6a050c	0.22853488
27	0x3d1f4896	0.038887583
28	0x3dd11a02	0.10210039
29	0x3e29311b	0.16522638
30	0x3f51a1e1	0.8188763
31	0x3ec0452c	0.37552774

conv2.in1.bias f4 [32]
0	0x3ebac23d	0.36476317
1	0x3f053901	0.52040106
2	0x3f24e3ac	0.644099
3	0x3efe5f81	0.4968224
4	0xbd00e5b5	-0.031469066
5	0x3ed9bfa0	0.4252901
6	0x3eb7f665	0.35930172
7	0x3eba2c43	0.36361894
8	0xbdbdbd3e	-0.09264611
9	0x3f37e0bd	0.718273
10	0x3f090a99	0.53531796
11	0x3e91d603	0.2848359
12	0x3be74a27	0.0070584
13	0x3f0ce8c5	0.5504268
14	0x3e5e807b	0.21728699
15	0x3f581974	0.8441384
16	0xbe55c1c3	-0.20874695
17	0x3f1f9c24	0.62347627
18	0x3ee71024	0.45129502
19	0x3e6a7204	0.22895056
20	0x3e7b833c	0.2456178
21	0x3e46a274	0.19397908
22	0xbe96b0c7	-0.29431745
23	0x3ed9d1bb	0.42542824
24	0x3e1eb171	0.15497376
25	0x3f5f5271	0.8723517
26	0x3ea9108d	0.3302044
27	0x3f1270ec	0.57203555
28	0x3f40ef7e	0.75365436
29	0x3f4b431b	0.7939927
30	0x3eb55a35	0.35420385
31	0x3ebc605f	0.36792275

conv2.conv2.weight f4 [32, 1, 3, 3]
0	0x3e573f7c	0.21020311
1	0x3e936713	0.28789577
2	0x3e016322	0.12635472
3	0x3da343b1	0.079718955
4	0xbe2d7cbe	-0.16942117
5	0xbe95b43a	-0.29239064
6	0xbda69493	-0.08133807
7	0xbd8e373e	-0.0694413
8	0xbe194a91	-0.14969851
9	0x3d3af84c	0.04564695
10	0x3d16f6b3	0.036856364
11	0xbd7474b4	-0.05968161
12	0x3db1b5ae	0.08677231
13	0x3f30cb40	0.69060135
14	0x3e8e1408	0.27749658
15	0x3df96866	0.121781155
16	0x3e5301ce	0.20606157
17	0x3d208510	0.0391894
18	0xbd9fafe3	-0.077972196
19	0xbe258ff1	-0.1616819
20	0x3e1564dc	0.14589256
21	0x3e85d35d	0.2613782
22	0xbdc3ca21	-0.095600374
23	0xbe84a937	-0.2591035
24	0xbdc80872	-0.09767236
25	0x3e8014b3	0.25015792
26	0x3d7e782d	0.062126327
27	0xbd462502	-0.048375137
28	0xbe0c5666	-0.13704833
29	0x3e2768f6	0.16348633
30	0x3e00c5e7	0.12575494
31	0xbeb4294f	-0.35187766
32	0x3e73b43d	0.23799224
33	0x3d30a5ff	0.043127056
34	0xbe17cc0e	-0.14823934
35	0x3dbfa36a	0.09357341
36	0x3cbca766	0.02302904
37	0xbd154cc0	-0.036450148
38	0xbb8472f6	-0.0040420247
39	0xbda96b91	-0.0827247
40	0x3bf6dcf3	0.0075336634
41	0xbd80e17e	-0.06293009
42	0xbbffd2a7	-0.007807094
43	0xbd22156e	-0.03957122
44	0x3c04f549	0.008115121
45	0xbcf80f08	-0.030280605
46	0x3ca44dae	0.020056572
47	0xbe1e0a4d	-0.15433617
48	0xbd9ebb8c	-0.077506155
49	0x3f01c127	0.5068535
50	0x3baea78b	0.0053300313
51	0xbd5b80ca	-0.05358962
52	0x3e234ee7	0.15948068
53	0xbe751cea	-0.23936811
54	0xb9f9c767	-0.00047641547
55	0xbbbf172b	-0.0058316193
56	0x3e130b60	0.14359808
57	0x3e1eb808	0.1549989
58	0x3e569102	0.20953754
59	0x3e4ab70f	0.19796394
60	0xbe8b80c3	-0.27246675
61	0xbe9b8dae	-0.3038153
62	0xbe16b497	-0.14717327
63	0xbd23c93f	-0.039986845
64	0xbe206191	-0.15662219
65	0xbe99b15c	-0.30018127
66	0x3dcc4085	0.099732436
67	0x3dd3c63a	0.10340543
68	0xbd438adb	-0.047739845
69	0xbe78eb78	-0.24308574
70	0xbd408084	-0.046997562
71	0xbeb7a703	-0.35869607
72	0x3c665e85	0.014060621
73	0xbd02487a	-0.0318074
74	0xbcc51cc9	-0.024061577
75	0xbd510375	-0.051028688
76	0xbe048b4e	-0.12943766
77	0xbbbd5162	-0.005777524
78	0xbe907e9e	-0.282216
79	0xbf8304dc	-1.0235858
80	0xbde0e716	-0.10981576
81	0x3ddff6db	0.10935756
82	0x3d930f8b	0.07180699
83	0x3e2da8ac	0.16958874
84	0xbdbf3b74	-0.09337512
85	0xbe92c168	-0.28663182
86	0x3a87d7ac	0.0010363958
87	0xbe190b75	-0.14945777
88	0xbf3dbab8	-0.74113035
89	0xbdc723a5	-0.097235955
90	0x3dea0d0b	0.11428269
91	0x3e388834	0.18020707
92	0xbd73e1d7	-0.05954155
93	0xbebb8aa8	-0.36629224
94	0xbe62fedd	-0.22167535
95	0xbe3bcafd	-0.18339153
96	0xbecbeabf	-0.39827535
97	0xbd68b3ff	-0.056812283
98	0x3cf06514	0.029345073
99	0x3dabfb6d	0.08397565
100	0xbd8bc45e	-0.068245634
101	0xbce4868f	-0.027896194
102	0x3e61de3f	0.22057436
103	0xbec00677	-0.37504932
104	0x3e3ff600	0.18746185
105	0x3cf6caf3	0.03012607
106	0xbdd9fbcc	-0.106437296
107	0x3d4e20e6	0.050324343
108	0x3d147bd0	0.03625089
109	0x3ca8b82a	0.020595629
110	0xbc17cc85	-0.00926507
111	0x3cc37dc2	0.023863677
112	0x3c7075ac	0.014676493
113	0xbc9e34a3	-0.019312209
114	0x3ce59377	0.028024418
115	0x3bc37e4f	0.005965985
116	0x3d1a1444	0.037616983
117	0xbd932d50	-0.07186377
118	0x3db2fe3a	0.08739896
119	0xbd1f3b0d	-0.038874675
120	0x3ebe54c2	0.3717404
121	0x3d8e3c05	0.069450416
122	0xbe4481fd	-0.19190212
123	0x3e5033df	0.20332287
124	0xbe8ac7d2	-0.27105576
125	0xbd8b477f	-0.06800746
126	0x3e4da4d0	0.20082402
127	0x3e0157a9	0.12631096
128	0xbb90bd2a	-0.0044170814
129	0x3e9f6de8	0.3113854
130	0xbd1da42a	-0.038486637
131	0xbdf67682	-0.12034322
132	0xbdf92e5e	-0.12167047
133	0xbe3cf3e3	-0.1845241
134	0xbe49ccdf	-0.19707058
135	0xbe09307a	-0.13397399
136	0x3e847cf5	0.25876585
137	0x3da482a5	0.08032731
138	0x3e2eaeaa	0.17058817
139	0x3bb7016b	0.005584886
140	0xbea36b3a	-0.31917745
141	0xbd367cef	-0.04455274
142	0xbe3b2eac	-0.18279523
143	0x3df94f81	0.12173367
144	0x3d1bc801	0.038032535
145	0x3c91aeb8	0.017783508
146	0x3bf450ec	0.0074559357
147	0x3e9bf0c3	0.30457124
148	0x3e975829	0.29559448
149	0xbe33ca65	-0.17557676
150	0x3e089324	0.1333738
151	0x3ed8351c	0.4222802
152	0xbd9cbe07	-0.07653432
153	0x3dcd4839	0.10023541
154	0x3e86b025	0.26306263
155	0x3e8bb55c	0.27286804
156	0xbd151068	-0.0363926
157	0xbe556843	-0.20840554
158	0xbe7bf8bc	-0.24606603
159	0xbd8c32fb	-0.06845661
160	0xbc397ddb	-0.01132151
161	0x3c28be4c	0.010299277
162	0x3d4a661d	0.04941379
163	0x3b398072	0.002830532
164	0xbd81bf6f	-0.06335341
165	0x3e7f4d9b	0.24931948
166	0x3e80827d	0.25099555
167	0xbe39cc80	-0.18144417
168	0x3e38538d	0.18000622
169	0x3e6ce5c1	0.23134519
170	0xbe357083	-0.17718701
171	0xbe004efc	-0.1253013
172	0xbd46f66c	-0.04857485
173	0x3d9fe7cf	0.07807886
174	0x3de4dec1	0.111752994
175	0x3e8c13cc	0.27358854
176	0x3e834fc2	0.25646788
177	0x3ec06c7d	0.3758277
178	0x3e4e6d1d	0.20158811
179	0x3db7feca	0.08984144
180	0x3dd371b3	0.10324421
181	0xbe3224b2	-0.1739681
182	0xbd1bec24	-0.038066998
183	0x3d852d74	0.0650281
184	0x3ea7b43e	0.327547
185	0xbe3d092c	-0.1846053
186	0xbe8820c0	-0.26587486
187	0x3d802a87	0.062581114
188	0x3e1c4754	0.15261585
189	0x3e59ec00	0.21281433
190	0x3c23685a	0.00997361
191	0x3e1c9576	0.1529139
192	0x3d0e0e9b	0.034681898
193	0xbd9f71a7	-0.07785349
194	0x3e034912	0.12820843
195	0x3ea2365c	0.31682098
196	0x3e1eeb5b	0.15519468
197	0x3e81f4d1	0.25382093
198	0xbda6056a	-0.081065014
199	0xbd944672	-0.07239999
200	0x3dca8a8a	0.098897055
201	0x3e81c771	0.25347474
202	0x3e88da51	0.26729062
203	0x3d1365da	0.035985805
204	0x3e0419ae	0.12900421
205	0x3ed1ea39	0.4099901
206	0x3d2d211a	0.042267896
207	0xbdc2c14a	-0.09509523
208	0xbde3aa51	-0.1111647
209	0x3de59859	0.11210699
210	0x3dd3fb98	0.10350722
211	0xbe68a368	-0.22718585
212	0xbe82afcc	-0.25524747
213	0x3ddcbd76	0.10778324
214	0x3ebb562a	0.36589175
215	0x3c4c40d8	0.012466632
216	0xbe1270ed	-0.1430089
217	0xbd146115	-0.036225397
218	0xbe81122d	-0.2520918
219	0xbdc6a38e	-0.09699164
220	0x3da884c3	0.08228447
221	0xbd4b2a88	-0.049601108
222	0xbe82a44c	-0.25515974
223	0x3bcb59ea	0.006205787
224	0xbeae5b3c	-0.3405398
225	0xbe04f9bf	-0.12985896
226	0xbd20eac0	-0.039286375
227	0xbd7fafa9	-0.062423382
228	0x3e16d007	0.14727794
229	0x3e447f6d	0.19189234
230	0xbe151cce	-0.1456177
231	0x3ea4ec62	0.32211596
232	0x3e9a4dd0	0.3013749
233	0xbe6bd171	-0.23029114
234	0xbe8237fa	-0.25433332
235	0xbf1716d0	-0.59019184
236	0xbe147158	-0.14496362
237	0xbe37d988	-0.17954075
238	0xbe90d1b8	-0.28285003
239	0x3995b7db	0.00028556478
240	0x3d6cd504	0.057820335
241	0xbce36742	-0.027759198
242	0x3e003b33	0.12522583
243	0x3e02c7e7	0.12771569
244	0xbd505002	-0.05085755
245	0x3d1079de	0.03527247
246	0xbe818c2c	-0.25302255
247	0xbe9b4a3a	-0.30330068
248	0xbdb5731f	-0.08859848
249	0xbed0cd81	-0.40781787
250	0xbe1b67d0	-0.1517632
251	0xbd6be7f6	-0.057594262
252	0xbe01d8b4	-0.12680322
253	0xbe0c28ef	-0.1368749
254	0xbc8fc885	-0.01755167
255	0x3d02432b	0.031802338

conv2.in2.weight f4 [32]
0	0x3ec1de7a	0.3786505
1	0x3e72be10	0.23705316
2	0x3f0c676c	0.5484531
3	0x3f0919f5	0.5355523
4	0x3f235d96	0.63814676
5	0x3ef8ac48	0.4856894
6	0x3ef481b2	0.477552
7	0x3e96a03e	0.2941913
8	0x3f26f154	0.6521199
9	0x3e9df19b	0.30848393
10	0x3e65e3db	0.22450201
11	0x3f32726d	0.6970585
12	0x3a40bfc0	0.0007352792
13	0x3ed8f66e	0.4237551
14	0x3e86f5c8	0.2635939
15	0x3f05ef51	0.5231829
16	0x3e9e2a84	0.30891812
17	0x3f1718ce	0.59022224
18	0x3ef48953	0.4776102
19	0x3edb13e3	0.4278861
20	0x3f22a4b1	0.6353255
21	0x3ecf0fba	0.40441686
22	0x3e80074a	0.2500556
23	0x3f108bdc	0.5646341
24	0x3e40de37	0.18834768
25	0x3eadc14c	0.33936536
26	0x3e555532	0.2083328
27	0x3f13e369	0.57768875
28	0x3ec6ee79	0.38853815
29	0x3efe5eb3	0.49681625
30	0x3eecaf51	0.46227506
31	0x3e7b969a	0.24569169

conv2.in2.bias f4 [32]
0	0x3eb22e1a	0.34800798
1	0x3feb7a25	1.839665
2	0x3c133a16	0.008986017
3	0xbc3dc119	-0.011581683
4	0xbbf702dd	-0.007538183
5	0x3f0caa7d	0.54947644
6	0x3e8d2450	0.27566767
7	0x3e886d63	0.26645955
8	0xbea2c0fd	-0.31787863
9	0x3fce22ab	1.610433
10	0x3fab61de	1.3389242
11	0x3ba04f5d	0.0048922733
12	0xbca58235	-0.02020369
13	0x3d833170	0.06405914
14	0x3ec9b1f2	0.39393574
15	0x37bb53ce	2.2331162e-05
16	0x3e7f9be5	0.24961813
17	0x3cdad19b	0.026711276
18	0x3ed88997	0.42292473
19	0x3ec4555b	0.3834637
20	0x3c85de6a	0.016341407
21	0x3e7f7791	0.24947955
22	0x3db859f1	0.0900153
23	0x3db61d7d	0.08892343
24	0x3ece8dfe	0.40342706
25	0x400f5f4a	2.240191
26	0x3f2b4899	0.6690765
27	0xbe16b1e3	-0.14716296
28	0x4001fb67	2.0309694
29	0x3a58efc2	0.0008275473
30	0x3eb98f39	0.36242083
31	0x3ea6c95c	0.325755

conv2.conv3.weight f4 [64, 32, 1, 1]
0	0xbd260c38	-0.040538996
1	0xbd90de95	-0.07073704
2	0xbeb68e64	-0.3565551
3	0xbeaaf02a	-0.33386356
4	0x3b4c4cca	0.00311737
5	0xbd0a6314	-0.033785895
6	0x3d17b481	0.037037376
7	0xbd5b3d8b	-0.05352549
8	0xbe5b09a2	-0.21390393
9	0x3e9fb2ac	0.31191003
10	0xbeb8c7b1	-0.36089852
11	0xbe6c66ea	-0.23086134
12	0xbda20202	-0.07910539
13	0x3ec1f37a	0.3788107
14	0xbea4798e	-0.3212399
15	0xbdb6bdfb	-0.08922955
16	0x3c826779	0.01591848
17	0xbe7fef84	-0.24993712
18	0xbdb80d54	-0.08986917
19	0xbe41d7ab	-0.18929927
20	0xbec3544e	-0.38150257
21	0x3da04fc9	0.07827718
22	0x3e33a62b	0.17543857
23	0xbdab24f5	-0.08356658
24	0xbc104f02	-0.008807899
25	0xbde13813	-0.109970234
26	0x3e9126fc	0.28350055
27	0x3e00cce3	0.12578158
28	0x3e1b26a5	0.1515146
29	0x3d1e3028	0.038620144
30	0x3e047a71	0.12937333
31	0x3ee6da92	0.4508863
32	0xbe459738	-0.19295967
33	0xbf24f97b	-0.64443177
34	0xbe04ba3a	-0.12961665
35	0xbd300ae6	-0.042979144
36	0x3db87797	0.09007185
37	0x3d30759d	0.043080915
38	0x3e448b50	0.19193769
39	0x3dde743e	0.10862015
40	0xbea8a2f5	-0.32936826
41	0xbf0c63c4	-0.5483973
42	0x3e1ad693	0.15120916
43	0x3d0c6a27	0.034280922
44	0x3dc149bf	0.09437894
45	0x3e556181	0.20837976
46	0x3d86e0e8	0.06585866
47	0xbda7240b	-0.081611715
48	0xbd320c57	-0.0434688
49	0xbe397ef1	-0.1811483
50	0xbe37c496	-0.17946085
51	0x3e152e45	0.14568432
52	0xbca1d88a	-0.019756574
53	0x3e1018b6	0.14071926
54	0x3e942d06	0.289406
55	0x3d0bb737	0.034110274
56	0xbce598ac	-0.028026901
57	0xbe78bfbb	-0.2429189
58	0xbd53cc2f	-0.051708397
59	0x3c8cedd2	0.017203245
60	0x3e4263de	0.18983409
61	0x3d0205ed	0.031743933
62	0xbe627cde	-0.22117946
63	0x3e295876	0.16537651
64	0xbd904d6b	-0.07046016
65	0xbe9497cc	-0.29022062
66	0xbdc85dbb	-0.09783503
67	0xbe921a85	-0.28535858
68	0x3e05e0e4	0.1307407
69	0x3d260da8	0.040540367
70	0x3d0b3551	0.033986393
71	0xbe14d224	-0.14533287
72	0xbe57a039	-0.21057214
73	0xbdb46734	-0.08808747
74	0x3dc315ef	0.09525668
75	0xbe000bde	-0.12504527
76	0x3de0576e	0.10954176
77	0xba30609e	-0.0006728264
78	0x3dee6859	0.116409965
79	0xbdfd17f1	-0.12358082
80	0x3c8d3adf	0.017239986
81	0x3db7b20b	0.08969506
82	0x3dc054c0	0.09391165
83	0x3eca64c2	0.39529997
84	0xbe5b1fa7	-0.21398793
85	0xbeac29ee	-0.3362574
86	0xbe9512f9	-0.29116037
87	0x3d1a9e33	0.037748527
88	0xbd372985	-0.04471733
89	0xbe4364ae	-0.19081375
90	0xbe9c0b86	-0.30477542
91	0xbd9f3566	-0.07773857
92	0xbebd271b	-0.36943898
93	0xbd66856c	-0.056279585
94	0x3e596fc2	0.21234038
95	0xbe12a927	-0.14322339
96	0xbe4c479a	-0.19949189
97	0xbd323a49	-0.043512616
98	0xbcd6bf2c	-0.026214205
99	0x3dc06f27	0.093962006
100	0x3dd6e646	0.1049314
101	0x3d68d9a1	0.056848172
102	0xbd8e225a	-0.06940146
103	0xbe6fdc4e	-0.23423883
104	0xbdd2c927	-0.10292273
105	0x3ea160b3	0.31519088
106	0x3d57092b	0.052498978
107	0xbe68c41a	-0.22731057
108	0x3e26c66d	0.16286631
109	0x3c87a2fa	0.016557205
110	0xbedd9aab	-0.43282065
111	0x3e3c1ce7	0.183704
112	0x3e628f96	0.22125086
113	0x3c9991ec	0.018746339
114	0xbeab7685	-0.3348886
115	0xbdfc7b33	-0.12328186
116	0xbe206a12	-0.15665463
117	0xbd2045c6	-0.03912904
118	0x3dfe32d6	0.1241204
119	0xbe387710	-0.18014169
120	0x3d7004f2	0.058598466
121	0xbeee6a80	-0.46565628
122	0x3dd5d2fe	0.10440634
123	0xbe07dd23	-0.1326795
124	0xbdedddfc	-0.11614606
125	0x3e303ca9	0.1721064
126	0xbec1f83f	-0.3788471
127	0xbdf8e7b5	-0.121535696
128	0xbed31111	-0.41223958
129	0x3e903265	0.28163448
130	0x3e586216	0.21131167
131	0x3d05fd4b	0.032712262
132	0x3d0c3983	0.034234535
133	0x3f022225	0.5083335
134	0xbd79994b	-0.060937207
135	0xbddc399f	-0.10753178
136	0xbe4b2681	-0.19838907
137	0x3f0480f0	0.51759243
138	0x3da1228f	0.0786792
139	0xbe31d664	-0.1736694
140	0x3e03d7fa	0.12875357
141	0x3ddc30a1	0.10751463
142	0xb990bfaa	-0.0002760862
143	0xbe999474	-0.29996073
144	0x3e7bcc77	0.24589716
145	0x3e19dbb0	0.1502521
146	0x3db9a9d8	0.09065598
147	0x3d677bcd	0.05651455
148	0x3dcc39c0	0.099719524
149	0x3c9b87af	0.018985597
150	0x3d819aac	0.063283294
151	0xbce44539	-0.02786504
152	0xbe0cd76d	-0.13754053
153	0xbd77c9d8	-0.060495228
154	0xbcb88e3f	-0.022528766
155	0xbe81870f	-0.25298354
156	0xbdbe0f6a	-0.09280284
157	0xbec3ca64	-0.3824035
158	0xbe80ec2d	-0.25180188
159	0x3c59e3c4	0.013298932
160	0xbcac9de9	-0.021071391
161	0x3dbdad05	0.092615165
162	0xbe5253b3	-0.20539741
163	0x3d1957d3	0.03743727
164	0xbdf33964	-0.11876181
165	0xbd492b1b	-0.049113374
166	0xbd81df29	-0.063413925
167	0x3e46c1ad	0.19409819
168	0xbf08f761	-0.5350247
169	0xbeb3c01e	-0.3510751
170	0x3e05a30c	0.13050479
171	0xbd98e449	-0.07465417
172	0xbd2fd8ba	-0.042931296
173	0xbe56753e	-0.20943162
174	0x3d6c6530	0.057713687
175	0x3d9b6638	0.07587856
176	0xbeb4b38b	-0.3529323
177	0x3d7380b2	0.059448905
178	0xbccb96a6	-0.024852108
179	0xbdf0112b	-0.117220245
180	0xbeb72045	-0.35766807
181	0xbed6afbf	-0.4193096
182	0x3e817a44	0.25288594
183	0x3de34156	0.11096446
184	0xbdef61b3	-0.116885565
185	0xbe8facf4	-0.2806164
186	0xbe1db82d	-0.15402289
187	0xbe9cf175	-0.30652967
188	0x3df66398	0.12030715
189	0xbe8e1b31	-0.2775512
190	0x3df23f0a	0.1182843
191	0xbe010d91	-0.12602831
192	0xbd936806	-0.07197575
193	0x3e7f7404	0.249466
194	0x3d86ab04	0.065755874
195	0xbf0f3e11	-0.5595408
196	0x3e25da74	0.16196615
197	0x3dcc3c0d	0.09972391
198	0x3d171031	0.036880676
199	0xbd610056	-0.05493196
200	0x3e739f69	0.23791279
201	0xbd8db572	-0.069193736
202	0x3db602c3	0.088872455
203	0xbeba9df0	-0.36448622
204	0x3c8945ca	0.01675691
205	0xbce1848f	-0.02752903
206	0x3e6de43b	0.23231594
207	0x3bfb64e9	0.0076719415
208	0x3e830db1	0.25596383
209	0x3cf56ec4	0.029960044
210	0x3cd238bc	0.025661819
211	0x3d43e39b	0.047824483
212	0xbce924db	-0.028459957
213	0x3e2a99f8	0.16660297
214	0x3e55e636	0.208886
215	0xbed9e855	-0.42560068
216	0x3d7b796b	0.06139509
217	0x3f02dba9	0.51116425
218	0xbe834a5a	-0.25642663
219	0x3c3cfed1	0.011535362
220	0xbe556ff6	-0.20843491
221	0x3d7e95b0	0.062154472
222	0xbe18e8a9	-0.14932503
223	0x3d29bb0d	0.04143815
224	0xbd55b8a4	-0.05217804
225	0x3eefe7a5	0.46856418
226	0x3e61ccdb	0.22050802
227	0xbe389347	-0.18024932
228	0xbb381b1b	-0.0028092328
229	0x3c97afa2	0.018516365
230	0xbe53213e	-0.2061815
231	0x3e265ce0	0.16246367
232	0xbf380f6b	-0.71898526
233	0xbcea542e	-0.028604593
234	0xbf0edd67	-0.55806583
235	0xbeab9621	-0.33512977
236	0x3e2fce70	0.17168593
237	0xbdf3a2be	-0.11896275
238	0xbd3b0fcb	-0.04566936
239	0x3e16e48c	0.14735621
240	0x3dd0d261	0.101963766
241	0xbcf8d722	-0.03037602
242	0x3dbe0605	0.09278492
243	0x3e58ceaa	0.21172586
244	0x3d500dac	0.05079429
245	0xbe2f27de	-0.17105052
246	0x3d062a91	0.03275544
247	0xbebbe0fd	-0.3669509
248	0x3e132ee6	0.14373359
249	0xbe055f99	-0.13024749
250	0xbe9a1ab7	-0.30098507
251	0x3eb15c53	0.3464075
252	0xbd8122ec	-0.06305489
253	0x3e96d9de	0.29463094
254	0xbdf16737	-0.11787265
255	0xbe6aca41	-0.22928716

conv2.in3.weight f4 [64]
0	0x3f7d5682	0.98960125
1	0x3edc80e2	0.4306708
2	0x3eb9b6d8	0.3627231
3	0x3f23ad1e	0.6393603
4	0x3f1aebc7	0.6051602
5	0x3f1db6f8	0.61607313
6	0x3f16e1b1	0.5893813
7	0x3eb0d08b	0.34534106
8	0x3ed6a34e	0.41921467
9	0x3f4c1bf5	0.7973016
10	0x3ed846d0	0.42241526
11	0x3f1a0947	0.60170406
12	0x3ed11b93	0.4084135
13	0x3ee3f153	0.44520053
14	0x3f1e3fca	0.61816084
15	0x3ef9a9dc	0.48762405
16	0x3f2e395c	0.68056273
17	0x3f814669	1.0099612
18	0x3eb3ab5f	0.35091683
19	0x3f5c01c0	0.8594017
20	0x3ebc8ff4	0.36828578
21	0x3eb3fbab	0.35152945
22	0x3ebeacd5	0.37241235
23	0x3ea870e6	0.32898635
24	0x3f370b6a	0.7150179
25	0x3ef33123	0.47498426
26	0x3f36a057	0.7133841
27	0x3f7dc149	0.99123055
28	0x3f2c3896	0.67273843
29	0x3edc1438	0.42984176
30	0x3f027341	0.50957114
31	0x3f1a08b4	0.6016953
32	0x3f028f0d	0.5099953
33	0x3f35f1e5	0.71072227
34	0x3ef97d41	0.48728374
35	0x3f4ba079	0.79541737
36	0x3f195f64	0.5991118
37	0x3f11bcf0	0.5692892
38	0x3f0e13d1	0.5549899
39	0x3ed6b120	0.4193201
40	0x3ebcfb91	0.3691068
41	0x3ed2735e	0.41103643
42	0x3edd7e67	0.432605
43	0x3f2eacf7	0.68232673
44	0x3f5c9e90	0.8617945
45	0x3f4d0a27	0.80093616
46	0x3ed533cf	0.4164109
47	0x3ef30f93	0.4747282
48	0x3eee1f14	0.46508086
49	0x3f511dd2	0.8168613
50	0x3f4f7595	0.8103879
51	0x3f4a3ce0	0.7899914
52	0x3f2c9420	0.6741352
53	0x3f361b4f	0.7113542
54	0x3f3f6b44	0.7477305
55	0x3f16688d	0.5875328
56	0x3f471d03	0.77778643
57	0x3f3bb9a6	0.7333015
58	0x3f0b17b5	0.5433305
59	0x3f3426d4	0.70371747
60	0x3ee8a370	0.45437193
61	0x3ee43b3e	0.44576448
62	0x3ec97983	0.3935052
63	0x3f1a2304	0.6020968

conv2.in3.bias f4 [64]
0	0x3d01896e	0.031625204
1	0xbe292601	-0.16518404
2	0x3de41158	0.111361206
3	0x3dba71eb	0.091037594
4	0x3c5af998	0.013365172
5	0xbe3830a2	-0.17987302
6	0x3bc0bcba	0.005881873
7	0xbe08dba0	-0.1336503
8	0x3e2069c5	0.15665348
9	0x3e3d48c3	0.18484788
10	0xbde4beb0	-0.11169183
11	0x3e299420	0.16560411
12	0xbe5691ee	-0.20954105
13	0xbe621972	-0.22080019
14	0xbe224852	-0.158479
15	0x3d5e8a51	0.054331128
16	0xbe774879	-0.2414874
17	0x3e04eca5	0.12980898
18	0x3d2abdf7	0.04168507
19	0xbe41a1fd	-0.1890945
20	0xbdba8296	-0.091069385
21	0x3c74404a	0.014907906
22	0xbdd73483	-0.10508063
23	0x3dd86350	0.10565817
24	0xbd13dade	-0.0360974
25	0x3dd013e6	0.10160045
26	0xbdfdef52	-0.12399162
27	0xbd99f81e	-0.07518028
28	0x3d44ee70	0.048078954
29	0x3d6dc56f	0.058049615
30	0xbc6f0548	-0.0145886615
31	0xbe748ce1	-0.23881866
32	0x3da6ce22	0.081447855
33	0x3becb71a	0.007223976
34	0xbd8ed75d	-0.06974671
35	0x3d1f6e7f	0.038923737
36	0xbc582a3e	-0.013193665
37	0xbd84c1e1	-0.06482292
38	0xbe44b163	-0.19208293
39	0xbe119a8e	-0.14219114
40	0xbdcda339	-0.10040898
41	0x3e10dc50	0.14146543
42	0xbb006672	-0.0019592312
43	0x3d2afd93	0.041745733
44	0xbc5dd8e3	-0.013540479
45	0x3e52a7bb	0.20571797
46	0xbe56acda	-0.20964375
47	0x3e93c9be	0.28864855
48	0xbe97dced	-0.2966074
49	0x3e712d94	0.23552543
50	0x3da86dad	0.08224044
51	0x3d6f3470	0.058399618
52	0xbe8198b1	-0.25311807
53	0x3e112d41	0.14177419
54	0xbe296db1	-0.1654575
55	0xbcedd1d3	-0.029030716
56	0xbdc5cbb1	-0.09657992
57	0x3dcde5e5	0.100536145
58	0x3e273eab	0.163325
59	0xbcf84aa0	-0.030309021
60	0xbdf4cdcf	-0.119533174
61	0x3d1b2958	0.037881225
62	0xbdaa9639	-0.08329434
63	0x3dffae08	0.12484366

conv3.conv1.weight f4 [64, 64, 1, 1]
0	0xbe33b5ea	-0.17549863
1	0xbd89230e	-0.06696139
2	0xbe6f340c	-0.23359698
3	0x3e08b8a5	0.13351686
4	0xbdcea940	-0.100908756
5	0xbd907a56	-0.07054584
6	0x3e03862d	0.12844153
7	0x3eaac2fe	0.33351892
8	0x3d6783b9	0.056522105
9	0x3e41d2e7	0.18928109
10	0x3e876eaa	0.26451617
11	0x3e736134	0.23767549
12	0x3bf306fc	0.007416604
13	0xbd99a23a	-0.075016454
14	0xbe109276	-0.1411837
15	0x3ec9b0c0	0.39392662
16	0xbe596d14	-0.21233016
17	0xbe5429e9	-0.20719112
18	0x3dff1aa1	0.12456251
19	0x3e97af78	0.2962606
20	0x3dfb5bcc	0.12273368
21	0xbd9f937b	-0.077918015
22	0xbb163a05	-0.0022922766
23	0x3e2bd4e2	0.16780427
24	0x3df05b1e	0.11736129
25	0x3eb718a6	0.35760993
26	0xbe72f529	-0.23726334
27	0xbe221db8	-0.1583165
28	0x3da012a7	0.07816058
29	0x3d520454	0.05127366
30	0x3ec75d37	0.38938305
31	0xbefa17ac	-0.48846185
32	0x3de35593	0.11100306
33	0x3d25df11	0.040495936
34	0xbee46fd5	-0.4461657
35	0x3e9c083e	0.30475038
36	0x3d55fea3	0.052244794
37	0x3de1aa59	0.11018819
38	0x3e8b4e42	0.27208143
39	0xbe10b6a2	-0.14132169
40	0xbe2d9d5e	-0.16954562
41	0xbe5ec300	-0.21754074
42	0x3e196183	0.14978604
43	0x3e311bd6	0.17295775
44	0x3dc68ecb	0.09695204
45	0xb98df54d	-0.0002707638
46	0x3d7e847a	0.06213806
47	0xbe044011	-0.12915064
48	0xbe89ee71	-0.2693973
49	0xbea68e43	-0.32530412
50	0xbe0dad4e	-0.13835642
51	0xbdfae7d9	-0.12251253
52	0xbc7ae804	-0.015314106
53	0xbeb85833	-0.3600479
54	0xbe3984d1	-0.18117072
55	0x3d097440	0.03355813
56	0xbdd50c37	-0.104027204
57	0xbe453ceb	-0.1926152
58	0x3de5a1f4	0.11212531
59	0x3e4bff8a	0.19921699
60	0x3dc40ab8	0.09572357
61	0xbdccd81f	-0.10002159
62	0x3e838d6c	0.25693834
63	0x3de272cb	0.11057051
64	0x3baf3309	0.00534666
65	0x3dbc6e2e	0.092007026
66	0xbdc5d8ca	-0.0966049
67	0x3e7254d9	0.2366518
68	0x3de49c6f	0.1116265
69	0x3def4f03	0.11684992
70	0xbed65339	-0.4186037
71	0xbd1dc7a8	-0.038520485
72	0x3c1770a9	0.009243169
73	0x3ee23cbd	0.44186965
74	0x3e292dfb	0.16521446
75	0x3e9b483c	0.30328548
76	0xbe632901	-0.2218361
77	0x3e12e8d6	0.14346632
78	0x3d434335	0.047671515
79	0xbe017364	-0.12641674
80	0xbef37c5e	-0.47555822
81	0xbe29539a	-0.16535798
82	0xbc8ddab0	-0.017316192
83	0xbe86f039	-0.2635515
84	0xbd2189d8	-0.0394381
85	0xbd6191e5	-0.055070776
86	0x3d6a3058	0.05717501
87	0xbe7b582d	-0.24545355
88	0x3dabc639	0.08387417
89	0x3dfb1099	0.12259025
90	0xbd7b67cd	-0.06137829
91	0xbe175541	-0.14778616
92	0xbd5eb287	-0.054369476
93	0x3d8e5fa2	0.06951834
94	0x3a7aaf20	0.0009562839
95	0xbea98313	-0.33107814
96	0x3baba948	0.0052386858
97	0xbdac8f56	-0.08425777
98	0xbd4e4c77	-0.05036589
99	0xbd7a90e9	-0.061173353
100	0x3e419cf3	0.18907528
101	0x3d283923	0.041070115
102	0xbd7df401	-0.06200028
103	0x3e63528b	0.22199456
104	0xbdecf5d4	-0.115703255
105	0xbe0077ef	-0.12545751
106	0xbd5b6966	-0.053567313
107	0xbe2769ea	-0.16348997
108	0x3e8670f1	0.26258042
109	0xbe25e684	-0.16201216
110	0x3d2b9129	0.041886482
111	0xbd19d267	-0.03755417
112	0x3d20c339	0.03924868
113	0x3e07fd80	0.13280296
114	0x3d856594	0.06513515
115	0xbece08bc	-0.4024104
116	0xbd4f4708	-0.05060485
117	0x3e61dbd3	0.22056513
118	0x3ec1d4e5	0.37857738
119	0x3e39fb99	0.18162383
120	0x3aee7bed	0.0018194892
121	0xbe85a617	-0.2610328
122	0xbbdb943a	-0.0067010196
123	0x3e5b9756	0.21444449
124	0x3c99250e	0.018694427
125	0x3e8a90b5	0.27063528
126	0xbc3f2503	-0.011666539
127	0x3e8632f1	0.2621074
128	0x3df4c802	0.11952211
129	0xbd1deac6	-0.038553976
130	0xbe3b6137	-0.18298803
131	0x3e083cee	0.13304493
132	0xbdd2a013	-0.10284438
133	0xbca8dcaa	-0.020613033
134	0x3e849045	0.2589132
135	0x3e77781f	0.24166916
136	0x3eee4699	0.46538237
137	0x3e71ff1e	0.23632476
138	0xbe22581b	-0.15853922
139	0x3e810bf7	0.2520444
140	0xbe48706f	-0.1957414
141	0x3e2ce6eb	0.16884963
142	0xbe864a67	-0.2622864
143	0xbe4d4c12	-0.2004855
144	0xbd3eeec6	-0.04661443
145	0x3e3ee01b	0.18640177
146	0x3e5ad776	0.21371254
147	0xbe8f97c1	-0.28045467
148	0x3f0698aa	0.52576697
149	0x3e0ff813	0.14059477
150	0x3c622779	0.013803356
151	0xbdc58d32	-0.096460715
152	0xbe99e3bb	-0.30056557
153	0xbdc6dbbd	-0.097098805
154	0x3d97d129	0.07412941
155	0xbde8613a	-0.113466695
156	0x3e89b63c	0.26896846
157	0x3ee277d2	0.4423204
158	0x3e8f40fa	0.2797926
159	0x3d8fd473	0.07022943
160	0x3ebeefd6	0.37292355
161	0x3e45d71e	0.19320342
162	0x3deea927	0.11653357
163	0x3cf0a1b6	0.029373985
164	0x3e944361	0.28957656
165	0xbe188727	-0.14895307
166	0xbe591c89	-0.21202292
167	0x3e00b274	0.12568074
168	0x3e5a6a1d	0.21329542
169	0x3d957bb2	0.07298984
170	0xbe2a61c9	-0.16638865
171	0x3c86699a	0.016407777
172	0xbc9c9c15	-0.019117394
173	0xbe5effed	-0.21777315
174	0x3da0fa3f	0.07860231
175	0xbe446b60	-0.19181585
176	0xbdd13cca	-0.10216673
177	0xbe441719	-0.19149436
178	0x3d513f76	0.05108591
179	0xbe8a2382	-0.26980215
180	0xbdb27913	-0.08714499
181	0xbe827ef9	-0.25487497
182	0x3d29b49b	0.041432004
183	0xbdace667	-0.08442383
184	0x3c854fdd	0.016273433
185	0xbcf1763a	-0.02947532
186	0x3d184323	0.0371734
187	0x3ee524c8	0.44754624
188	0x3e87a8c3	0.26495942
189	0xbd90166f	-0.07035529
190	0x3ddf8080	0.10913181
191	0xbc49dbd2	-0.012320476
192	0x3def1cfe	0.11675452
193	0x3dedea32	0.11616935
194	0x3c94f163	0.018181508
195	0xbe3bfed8	-0.18358934
196	0xbd88f660	-0.06687617
197	0xbe294d1d	-0.16533323
198	0xbd8dad89	-0.06917865
199	0x3d8503be	0.064948544
200	0x3e877386	0.26455325
201	0x3e89a3e8	0.26882863
202	0x3e8767b0	0.26446295
203	0x3c36070a	0.011110077
204	0x3dec0626	0.1152461
205	0xbeffdef7	-0.49974796
206	0x3ca81dd8	0.020522043
207	0xbe0f8ebb	-0.14019291
208	0xbd36e770	-0.04465431
209	0xbe0f7bc3	-0.14012055
210	0xbe9d12cc	-0.30678403
211	0x3e5ef6d7	0.2177385
212	0x3ee784cd	0.45218506
213	0x3d99becd	0.075070955
214	0x3eb462b8	0.35231566
215	0xbe87d2d3	-0.26528034
216	0xbe745c8e	-0.23863432
217	0x3e8d4803	0.27594003
218	0x3c7af752	0.015317755
219	0xbe2efcad	-0.17088576
220	0xbe122024	-0.14270073
221	0xbb6a3b81	-0.0035741033
222	0x3e8c94e8	0.27457356
223	0xbe098f23	-0.13433509
224	0x3d720c28	0.059093624
225	0xbe547a2d	-0.20749731
226	0xbf2602f2	-0.64848244
227	0x3c83c2d3	0.01608411
228	0xbdca86d7	-0.09889
229	0x3cc2ce50	0.023780018
230	0x3d26972c	0.040671512
231	0xbe4a8f08	-0.19781125
232	0xbdad26e0	-0.084546804
233	0x3e76e500	0.24110794
234	0x3e4f28d2	0.20230415
235	0x3e014c37	0.1262673
236	0x3dcffb0a	0.10155304
237	0xbcf27ded	-0.029601062
238	0xbee5a365	-0.44851223
239	0xbe54f358	-0.20795953
240	0x3d1112a2	0.03541816
241	0xbe092edd	-0.13396783
242	0xbe33b040	-0.17547703
243	0x3dd01ff2	0.10162343
244	0xbdbd2f12	-0.092374936
245	0xbf0a32e9	-0.5398393
246	0xbd394769	-0.045234118
247	0x3d1a7e39	0.03771803
248	0xbde5e3c9	-0.11225087
249	0xbdf6878a	-0.12037571
250	0x3e228a67	0.15873109
251	0x3e7943b1	0.24342228
252	0xbe72882f	-0.23684762
253	0xbdcb522e	-0.09927784
254	0x3e816199	0.25269774
255	0x3dd0b386	0.101904914

conv3.in1.weight f4 [64]
0	0x3f0325c0	0.51229477
1	0x3ebe4ae4	0.37166512
2	0x3fa288ea	1.2698033
3	0x3e16d0b8	0.14728057
4	0x3f119721	0.5687123
5	0x3e5bd42e	0.21467659
6	0x3d78e24a	0.06076268
7	0x3f00ed3e	0.50362
8	0x3dfe2344	0.1240907
9	0x3ec0c53c	0.37650478
10	0x3e533197	0.20624386
11	0x3df78a43	0.12086918
12	0x3e30f965	0.17282636
13	0x3f03afe7	0.5144028
14	0x3f1eac0c	0.6198127
15	0x3c0907d4	0.008363683
16	0x3f6a9e89	0.91648155
17	0x3e5e2427	0.21693479
18	0x3e64c2ba	0.22339907
19	0x3cdd19f9	0.026989924
20	0x3eda9506	0.4269182
21	0x3eb0f3fa	0.3456114
22	0x3e378522	0.1792188
23	0x3db552c2	0.088536754
24	0x3dbb0ccc	0.091333
25	0x3eb477b1	0.35247567
26	0x3f02cec6	0.5109676
27	0x3f0b80aa	0.544932
28	0x3d2f18fd	0.04274844
29	0x3e136678	0.14394557
30	0x3e839484	0.25699246
31	0x3dab932f	0.083776824
32	0x3ea3f81b	0.32025227
33	0x3fb52f82	1.4155123
34	0x3f18f34a	0.5974623
35	0x3dce2823	0.10066249
36	0x3f6e4499	0.9307342
37	0x3efad3f5	0.48989835
38	0x3f16204f	0.5864305
39	0x3e880f36	0.26574105
40	0x3f79a907	0.9752354
41	0x3f3d0e1b	0.7384965
42	0x3e67def4	0.22643644
43	0x3c9aafe0	0.018882692
44	0x3e932ae9	0.28743675
45	0x3f14f661	0.58188444
46	0x3e2602be	0.16211984
47	0x3e6382e1	0.22217895
48	0x3f42c9f9	0.76089436
49	0x3de03488	0.109475195
50	0x3f2412ac	0.6409099
51	0x3e38e0f3	0.18054561
52	0x3e423787	0.18966495
53	0x3deeadb7	0.11654227
54	0x3e94d099	0.29065397
55	0x3ea3c016	0.31982487
56	0x3e445bdb	0.19175665
57	0x3f49cda2	0.78829396
58	0x3f1caea9	0.6120401
59	0x3f1a83e2	0.6035749
60	0x3cfe3047	0.03102888
61	0x3e31e5e8	0.17372859
62	0x3e0d9d5c	0.13829559
63	0x3ec60068	0.38672185

conv3.in1.bias f4 [64]
0	0x3ebbb32b	0.36660132
1	0x3f531ccb	0.8246581
2	0x3e787b28	0.2426573
3	0x3e332a5d	0.17496629
4	0x3e50176d	0.20321436
5	0x3f87d6f0	1.0612469
6	0x3f1422f3	0.5786583
7	0x3eac0ffd	0.33605948
8	0x3f09dca7	0.53852314
9	0x3e2d2156	0.16907248
10	0x3ebff286	0.37489718
11	0x3e8cc380	0.27492905
12	0x3f084354	0.53227735
13	0x3e8af9a4	0.27143586
14	0x3e2fb0a1	0.17157222
15	0x3f1315f1	0.57455355
16	0x3dd31b93	0.10307994
17	0x3e8a9e43	0.2707387
18	0x3e5cf407	0.21577464
19	0x3f17136f	0.5901403
20	0x3ec92bc6	0.3929121
21	0x3d733eb3	0.059385967
22	0x3f2e0512	0.67976487
23	0x3ec5badb	0.38619122
24	0x3f28e962	0.65981114
25	0x3f0d1dcd	0.551236
26	0x3ec3d6c8	0.38249803
27	0x3eaa9489	0.33316448
28	0x3f26c18e	0.6513909
29	0x3f346be6	0.7047714
30	0x3e370143	0.17871575
31	0x3f2cdcf4	0.6752465
32	0x3f2166d9	0.6304756
33	0xbdc9c5e7	-0.098522
34	0x3e1af8b3	0.15133934
35	0x3efa5976	0.48896378
36	0xbe011cb4	-0.12608606
37	0x3e70dcef	0.2352178
38	0x3ea64634	0.32475436
39	0x3e32dbaa	0.17466608
40	0x3ee94179	0.45557764
41	0x3e6db956	0.23215231
42	0x3eb79fdd	0.35864154
43	0x3ee96f51	0.4559274
44	0x3e14d791	0.14535357
45	0x3e8854bc	0.26627147
46	0x3f3ca616	0.7369093
47	0x3edbe4c1	0.42947963
48	0x3e708c14	0.23490936
49	0x3f25a8e1	0.64710814
50	0x3ec67216	0.38758916
51	0x3f14ef0f	0.58177274
52	0x3ed4940e	0.41519207
53	0x3f2dcc75	0.678901
54	0xbc3036b5	-0.010755231
55	0x3eb3116c	0.3497423
56	0x3e4b186f	0.1983354
57	0x3e9288f0	0.286201
58	0xbde10c77	-0.109887056
59	0x3cef7ed2	0.029235277
60	0x3ef0f52b	0.47062048
61	0x3eda69a8	0.42658734
62	0x3f26cf6a	0.6516024
63	0x3de20880	0.110367775
