models/picasso.pth (torch_old, 973145 bytes, 85 tensors)

conv1.weight f4 [32, 3, 9, 9]
000000 e1 77 9b bd 99 90 5c bd f0 a3 3d 3d 1e 45 1a be
       -0.075912245 -0.053848837 0.04629892 -0.15065429
000010 35 1d 1f bd ea 7c 05 3e e0 9a c6 bb 06 53 a4 3d
       -0.038846213 0.13035932 -0.006060943 0.08023648
000020 c7 47 94 3e b2 e2 ce bd af aa 8b bc 6a b3 9c bd
       0.28961012 -0.101018324 -0.017049162 -0.07651408
000030 28 d7 4b ba 12 ad 9c 3d 23 4b 73 bd 71 fc 45 bd
       -0.0007775896 0.07650198 -0.059397828 -0.04833645
000040 10 f4 cf bd aa d1 b5 3d ee 80 f1 bd d0 7f e1 bd
       -0.10153973 0.08877881 -0.117921695 -0.110107064
000050 51 bf 71 bd de b7 db 3d 7d 41 e8 ba 95 65 94 3e
       -0.059020344 0.10728429 -0.0017719712 0.2898375
000060 0c 85 8c 3e 7d c4 a4 3d f5 cd 46 3e b6 d7 38 be
       0.27445257 0.0804529 0.19414504 -0.18051037
000070 a4 f8 9e bd ca 62 3c bd 51 fa 36 bf 7f a9 8e bf
       -0.07762268 -0.04599265 -0.714757 -1.1145476
000080 ec d6 8e 3e 86 2c e3 3e c8 75 45 3e 1a 4a 6b 3e
       0.27898347 0.44369906 0.19283211 0.22977486
000090 5b 18 c6 bd 8b 90 ec bd c3 91 98 be 77 fe 13 bf
       -0.09672614 -0.11551007 -0.29798707 -0.5781016
0000a0 20 02 f8 bd e8 db b4 3e a5 36 15 3e 96 29 07 3e
       -0.1210978 0.35324025 0.14571626 0.13199458
0000b0 5f 95 29 3e 50 b6 09 be 88 62 3b bc e9 95 0c be
       0.16560887 -0.13448453 -0.011437066 -0.13729061
0000c0 2f f5 42 be e6 d5 f9 37 5a 71 e5 bc a4 e3 0c 3d
       -0.19038843 2.9782717e-05 -0.028008152 0.034396783
0000d0 aa 53 2c 3d f3 71 d5 3c e4 cb e3 bd 26 37 d0 bc
       0.042071976 0.026055312 -0.111228734 -0.025416922
0000e0 67 69 1f bd d2 dc 08 bd 9f 49 21 3e 01 a3 66 3e
       -0.03891888 -0.033413716 0.1575074 0.22523119
0000f0 97 71 d3 3c ac 72 43 bc 19 3f 09 bd e8 70 80 3d
       0.025811 -0.011929195 -0.03350744 0.06271535
000100 7f d6 ff bd 92 42 86 bd bc 50 37 3c 06 6f 95 bc
       -0.12492084 -0.06555666 0.011188682 -0.018241417
000110 4e f2 97 3d 83 7b 08 bd e7 ed 60 3d b2 5d f1 3d
       0.07419263 -0.033320915 0.05491438 0.11785449
000120 6e 1f bc bd f1 87 25 3d 68 84 51 3d 6c 81 50 3d
       -0.09185682 0.040412847 0.051151663 0.050904676
000130 ee 68 1d 3d 02 b7 17 3e 9f ed 02 3d 34 38 e0 bc
       0.038430147 0.14815906 0.031964894 -0.02737055
000140 f5 66 15 3e 62 ed 87 bd ef b2 9c bd b7 f2 9c 3d
       0.14590056 -0.06637074 -0.076513164 0.07663482
000150 c8 fe 9d bd 2d 1a 12 bd 6a 63 10 3e be b1 29 3e
       -0.07714611 -0.035669494 0.14100423 0.1657171
000160 27 29 6e 3d 5a 64 e2 3d d5 19 db bd 16 90 d7 3c
       0.058144715 0.11054297 -0.106982864 0.026313823
000170 e7 5d aa bd 98 8a 15 3e 8f b5 c9 3d 08 63 e9 bc
       -0.08318692 0.1460365 0.09849083 -0.028489605
000180 0c 5d b5 bb ce 41 35 3d 0c 32 7f bb 17 bc 49 bd
       -0.0055347737 0.04425221 -0.0038939742 -0.049251642
000190 2a 25 ee bc 8b 75 87 3d 07 ba c8 3e 9b 76 cf 3d
       -0.029070456 0.066142164 0.39204428 0.10130044
0001a0 f6 8e ac 3e 21 e0 82 3e 1b 72 19 3e 9e 8d e7 3d
       0.3370282 0.25561622 0.14984934 0.11306308
0001b0 cf f2 91 bd b2 f1 da 3d 07 ed 0b 3e 40 35 39 bf
       -0.0712639 0.10690631 0.13664638 -0.7234688
0001c0 04 de e2 bf 44 14 3c be 2c 25 63 3d 05 0f 0a 3e
       -1.7724004 -0.18367106 0.05545537 0.13482292
0001d0 e2 e0 44 3e 32 5b 4b 3d b7 82 a0 3d 9f fa 0d be
       0.19226411 0.049647518 0.07837432 -0.13865136
0001e0 7b ba 05 bf 43 15 08 bf 48 1d e3 bd cb 2d 37 be
       -0.5223767 -0.5315744 -0.11089569 -0.17888562
0001f0 a4 6d b3 3d e5 99 42 3d 8f d8 05 3e 2a 1c 70 3d
       0.08761147 0.047510047 0.13070892 0.05862061
000200 79 72 77 bd 5c 76 6c be ca 19 b4 bd 74 d1 87 be
       -0.060411904 -0.23092026 -0.087939814 -0.26526988
000210 c0 a2 21 bc 1f 35 f2 3d a9 50 2e 3d 1b f9 04 3d
       -0.009865463 0.11826538 0.042557392 0.032464128
000220 d8 b2 13 bd 29 55 c0 bd c7 bf 00 be 09 59 c1 3d
       -0.03605923 -0.09391243 -0.12573157 0.0944081
000230 d5 cd bc 3d 67 15 98 bd c3 f5 89 bd c0 85 ba bd
       0.09218947 -0.07425957 -0.067363285 -0.09107542
000240 f2 45 a7 3b d8 3f 63 bd 1b 99 2e bd fb ec a3 bd
       0.0051047737 -0.055480808 -0.04262648 -0.08004185
000250 67 eb 80 bc 38 54 9c bc c7 20 20 bb d3 90 8c 3d
       -0.015737249 -0.019083127 -0.00244336 0.068635605
000260 86 64 f5 3d b1 8c b4 bd 08 3d 9c bd c2 e0 08 bd
       0.11982064 -0.08815897 -0.07628828 -0.03341747
000270 cf 7f d2 bc 46 39 1a bd e7 b1 2b bc 38 18 9a bc
       -0.02569571 -0.037652276 -0.010479427 -0.018810377
000280 46 26 8d 3b 92 3d 47 bd a9 f2 f5 3d ab 0d 40 3d
       0.004307541 -0.048642702 0.120091744 0.046888035
000290 21 e0 c3 3d 56 c0 e1 3b 9c ea 14 bd a5 e1 c3 3d
       0.095642336 0.0068893833 -0.036356553 0.09564523
0002a0 ac e5 cd 3c 5e e0 b2 bc 04 85 2e bc da 4a 1c 3e
       0.02513393 -0.021835502 -0.010651831 0.15262929
0002b0 af c1 08 3e 0e 0c b6 3d 18 24 44 3d 30 6a a0 bc
       0.13355134 0.08889018 0.047885984 -0.019581884
0002c0 02 29 e5 be d4 2d 38 be 89 5e 86 bd c2 35 ae bd
       -0.4475785 -0.17986232 -0.06561 -0.08506347
0002d0 a0 3c 6c 3e c0 46 e4 3d ed f0 80 3d ba c0 c9 3e
       0.23070002 0.11146307 0.06295953 0.3940485
0002e0 8f 7a 29 3c 6f 16 ad be 1a 89 b2 be 96 ce 06 be
       0.010344162 -0.33806178 -0.34870225 -0.13164744
0002f0 4d 05 68 3d 1c 62 2e 3d cb c3 dc 3d 57 d2 c5 3e
       0.05664568 0.042574033 0.10779532 0.3863704
000300 76 50 f8 3c ea 27 a9 bf da 5e 35 bf 99 bd e8 be
       0.030311804 -1.3215306 -0.70847857 -0.45457152
000310 5d a1 0d be 2d 2f 80 bc d8 0b 2f 3e 37 9a 26 3e
       -0.13831086 -0.015647495 0.17094362 0.16269766
000320 e8 7d 00 3e 6f e9 39 be 48 82 1b bf 11 6e 65 bf
       0.1254803 -0.18155454 -0.6074567 -0.89621073
000330 98 a7 1b bf 71 a1 02 be f3 71 26 bd 2e da 85 3d
       -0.608026 -0.12756898 -0.040636014 0.06535755
000340 9f ae 85 3e 01 81 08 3e 9b 6e 66 be 85 92 b8 be
       0.26109788 0.13330461 -0.2250313 -0.36049286
000350 8d 81 fa be 27 61 54 be 29 57 c7 3d b6 77 04 3c
       -0.48926964 -0.20740186 0.09733421 0.008085182
000360 3b 9d 3c 3d 95 6f b5 3d 84 29 49 3d 58 b2 0e 3d
       0.046048384 0.08859173 0.049111858 0.03483805
000370 ba af 4f 3e 77 18 af 3d ca 3a 2f bd c5 f4 5d 3c
       0.20281878 0.08549588 -0.042780675 0.013547127
000380 67 91 5f bc 38 b4 cb 3d 56 a6 7c bc 8d d5 ee 3d
       -0.013645506 0.099464834 -0.015420517 0.11661825
000390 c1 b9 36 3e 28 5d 6b 3d b4 94 9e bc fb c9 94 bb
       0.17844297 0.057461888 -0.019358017 -0.0045406795
0003a0 5d 28 49 3c 1d 2d f4 bb 0a d4 47 3c 6e c0 0b 3d
       0.01227769 -0.007451667 0.01219655 0.034119062
0003b0 e4 95 b8 3d 87 5a 36 3d de ea 31 3d 1a ce aa 3d
       0.09012964 0.044519927 0.043436877 0.08340092
0003c0 fe 48 c5 3d e4 8c 56 3c c5 64 83 be 44 c3 b1 3b
       0.09633063 0.013095114 -0.2566282 0.005424889
0003d0 f9 6d 46 3d 03 46 a9 bb 4f 4d cd 3b 56 ba 6b 3e
       0.04844472 -0.0051658168 0.0062653194 0.230203
0003e0 a6 b9 a0 3d b8 f9 f8 bc b8 f6 d0 bd 8d d5 67 3d
       0.0784791 -0.030392513 -0.10203308 0.056600142
0003f0 2c 1c 18 3d 33 28 c2 3d 57 d9 1f 3e b9 8f c1 bb
       0.03713624 0.09480324 0.15610252 -0.0059070257

in1.weight f4 [32]
000000 a6 ff 18 3f 2b a2 e8 3e 39 41 a1 3e b2 46 75 3e
       0.5976509 0.45436224 0.31495073 0.2395275
000010 3f 0f b9 3e 55 17 13 3e cb c4 81 3e 0c 00 ec 3e
       0.36144444 0.14364369 0.25345454 0.46093786
000020 da fb 00 3f 00 58 be 3e 70 38 de 3e 77 5f 33 3f
       0.50384295 0.37176514 0.43402433 0.7006754
000030 bb 87 d2 3e 38 fd 47 3e da 80 98 3e 47 65 62 3e
       0.4111918 0.19530189 0.29785806 0.22108947
000040 2b 1e 1a 3f 15 5e b9 3e 69 f1 53 3e b4 a6 00 3f
       0.6020228 0.3620459 0.2069756 0.5025437
000050 41 bf 62 b9 b4 34 ab 3e ce 35 de 3e 3b 87 86 3e
       -0.00021624287 0.33438647 0.43400425 0.26275048
000060 8a 4f 10 3e 15 c4 f3 3e ac d4 cd 3e 3a e6 92 3e
       0.14092842 0.47610536 0.40201318 0.28691274
000070 8e 02 a2 3e c3 e4 0d 3e 66 ec af 3e 5a 25 98 3e
       0.31642574 0.13856797 0.34360045 0.29715997

in1.bias f4 [32]
000000 6c 22 0c be 1e ef 25 40 76 ab b0 be 72 b8 c7 3f
       -0.13685006 2.5927196 -0.34505814 1.5603163
000010 08 39 13 40 10 e9 14 3f 16 01 83 3e e1 01 f9 3d
       2.300356 0.58168125 0.25586766 0.121585615
000020 50 3f f8 3e a1 b0 0d 3e fc da 9a be 34 38 0f 3f
       0.48485804 0.1383691 -0.30245197 0.55945134
000030 23 59 99 be de a6 88 3e c7 71 36 3e db 78 44 3f
       -0.29950818 0.2668981 0.1781684 0.7674691
000040 41 da 44 be f3 a4 93 3e de 28 f4 3d 3b 64 80 be
       -0.19223882 0.28836784 0.11921857 -0.2507647
000050 4e a4 92 bc 40 2e 70 be 4b 6b b2 be 7c b9 c4 3d
       -0.017900612 -0.23455143 -0.34847483 0.09605691
000060 35 51 f0 3e 9c e6 0b 40 fb 14 c4 3d 2b 54 d0 3e
       0.46936956 2.1859503 0.09574314 0.40689215
000070 7b 1e 12 be 06 46 31 be b4 bc 97 3e f5 3e 2b 3e
       -0.1426944 -0.17311868 0.29636157 0.16723235

conv2.conv1.weight f4 [32, 32, 1, 1]
000000 64 53 98 3d 6e df 08 3e cc 11 d3 be f3 b0 73 be
       0.074377805 0.13366482 -0.41224515 -0.2379797
000010 f8 55 13 bd 58 ba b2 be b1 0c 00 3e a6 24 6c 3e
       -0.035970658 -0.34907794 0.12504841 0.23060855
000020 4b 62 32 3e 7f ad 65 3e 9a c8 23 3f 70 15 30 3d
       0.17420308 0.22429465 0.6397797 0.042989194
000030 11 b3 1d 3f f2 5b 9a 3e 7a 3c 4e be 1f 40 c0 3e
       0.6160136 0.30148274 -0.20140257 0.3754892
000040 3c c1 57 be b7 7f 0d be 8f 61 22 bd 5e 86 6a 3e
       -0.21069807 -0.1381825 -0.03964382 0.2290282
000050 77 bc bb 3d 93 33 4c be 7a 82 3c 3e eb 49 2e be
       0.09166806 -0.19941549 0.18409148 -0.17020385
000060 53 b5 e2 3e 67 7d 11 be cc 9f a2 be e9 47 cc 3d
       0.44278964 -0.14207993 -0.3176254 0.09974653
000070 7d 82 2b be 16 ab 8e 3e c4 e5 e3 be 5f 36 c1 3c
       -0.16748996 0.27864903 -0.44511235 0.023585496
000080 ca 45 42 3e a1 3e 17 bf e7 20 6d 3e 41 e5 84 3e
       0.18971935 -0.5907994 0.23157082 0.25956157
000090 b5 09 4e be 07 90 fd be 4b c7 a1 be 79 19 10 3e
       -0.2012089 -0.49523947 -0.3159736 0.14072217
0000a0 61 c8 c2 3d cb 46 d8 bd 39 63 6f 3c 0d 3b 6b 3c
       0.095108755 -0.10560378 0.014611059 0.0143573405
0000b0 27 16 09 be 3a cf 45 be 8f 1e 19 3f 46 13 47 be
       -0.13387357 -0.19317332 0.59812254 -0.19440946
0000c0 18 29 a1 3e e7 80 2d be 2d 96 3c be 5b 7e 67 bd
       0.31476665 -0.16943704 -0.18416663 -0.056516986
0000d0 71 8f 1e 3c eb ba 93 3e ae 5d 86 3b 79 ff 7b bd
       0.009677754 0.28853545 0.004100523 -0.061522935
0000e0 97 22 16 be a7 1a 35 3e 61 92 95 bd f4 d9 56 be
       -0.14661632 0.17685948 -0.0730331 -0.2098158
0000f0 91 b3 8e 3d f2 3e 49 be 19 b9 1e be 32 f1 24 be
       0.06967843 -0.19652918 -0.15500297 -0.16107634
000100 0c 69 99 be 90 dd 28 3e 78 42 58 3e 05 bc 8d 3e
       -0.29962957 0.1649077 0.21119106 0.2768251
000110 0b db c6 3d 7d 99 28 3f 00 70 b4 3d b8 e3 5a be
       0.09709748 0.65859205 0.08810425 -0.2137593
000120 b7 4c 94 3d a2 11 a0 bd 3f 95 84 bd b9 2c 11 be
       0.07241195 -0.07815863 -0.06473779 -0.14177217
000130 86 df 94 3e d5 75 17 bf d6 ea 3d 3d 83 26 58 be
       0.29076785 -0.5916417 0.046366535 -0.21108441
000140 24 00 0c 3e f8 f3 6f bd ce aa b9 be ed 6f 12 be
       0.13671929 -0.058582276 -0.36263126 -0.14300509
000150 a0 d8 a5 bb 28 d2 16 bd a0 c5 1c 3e 02 20 eb 3c
       -0.005061224 -0.036821514 0.15309763 0.028701786
000160 66 3b 2a 3f 60 27 35 b9 40 86 98 3e ec e0 81 bd
       0.66496885 -0.00017276173 0.29789925 -0.063417286
000170 a3 e0 c4 3e 3f d5 08 3e 1d b2 be 3e 9f c0 13 be
       0.38452634 0.13362597 0.37245265 -0.14428948
000180 b7 0f 16 be a9 8b 51 3c 8a 5c aa 3e da 71 0a 3e
       -0.14654432 0.012789645 0.33273727 0.13519993
000190 6f c9 6c 3d c0 ab 58 3d 3f 76 0d 3e f2 d3 8a bf
       0.05780929 0.05289817 0.13814639 -1.084593
0001a0 3f 49 ab be 28 ea 64 be 7e c9 b2 be 84 e4 7d 3e
       -0.3345432 -0.22354949 -0.3491935 0.24794203
0001b0 f3 97 79 be a5 21 af bc cb c4 e2 3d a7 f8 d7 bd
       -0.2437437 -0.021378348 0.110726915 -0.105454735
0001c0 55 18 5e 3e 90 d7 ab 3e e6 7b 5e bd d1 f4 b0 be
       0.2168897 0.335629 -0.054317378 -0.3456178
0001d0 93 d3 94 3d 44 fb 6e bd 69 d3 96 be ba 66 19 3e
       0.07266917 -0.058345094 -0.29458168 0.14980593
0001e0 c9 5f 3d bd 3b 46 de 3e 6f 00 05 3e 39 d0 a4 3d
       -0.046233926 0.43412957 0.12988447 0.08047528
0001f0 2d 30 66 3e 6b 97 4c 3d c2 2e 87 3d a9 4a e6 bd
       0.22479315 0.04994909 0.06600715 -0.11244709
000200 11 c0 0d bc e2 86 39 3d 21 bd ee 3e 76 9b a4 3e
       -0.008651749 0.04529465 0.4662867 0.32149857
000210 6e 44 cc bd 7d 69 e0 bd 99 64 9f be 99 a9 f5 bd
       -0.099739894 -0.1095762 -0.31131437 -0.11995239
000220 f2 ee 9e 3b 24 61 da bc 8e e7 e2 3d 22 e6 9b 3e
       0.004850262 -0.026657648 0.11079322 0.30449015
000230 4d 18 e9 3c eb 01 a1 bc cc 19 5b be be 3e 60 be
       0.02845397 -0.019654235 -0.2139656 -0.21898934
000240 81 59 3c 3f df a1 dd bd 95 74 7a 3e 4c 14 36 bd
       0.7357407 -0.1082189 0.24458535 -0.04445295
000250 b0 06 f2 3d 47 7a f2 3e 04 57 46 be a5 5c 63 be
       0.11817682 0.47358915 -0.19369131 -0.2220331
000260 62 0b 23 be 4c af 6f 3e 93 c4 67 3e 3e ab 0a bd
       -0.15922311 0.23406714 0.22633581 -0.033854716
000270 46 7d d0 3e 9b dc 8f be 97 f1 8b bd 20 1f ab bd
       0.40720576 -0.28097996 -0.06833189 -0.08355546
000280 c3 d6 a5 be e7 95 a3 be 11 09 15 3f b4 36 c1 3d
       -0.32390413 -0.31950304 0.5821696 0.09434262
000290 c2 ee d9 be 1d ad 20 be d4 e9 00 bf bf 4d 43 bf
       -0.4256497 -0.15691037 -0.50356793 -0.76290506
0002a0 3c 36 d8 be f2 eb 49 be 6c ac de be 61 a5 93 3e
       -0.42228878 -0.19718912 -0.43490922 0.28837112
0002b0 77 42 99 be d9 03 cf bd c0 c4 0d 3e d1 ea 8d bc
       -0.2993352 -0.10108156 0.13844585 -0.017323883
0002c0 37 6f f5 3e 41 52 dc bd b4 1f f5 bc 2f 69 e7 be
       0.47936413 -0.10757876 -0.029922344 -0.45197436
0002d0 18 e2 bd 3d 52 6d 2f 3f 29 93 c4 be 54 f4 2c bc
       0.092716396 0.68526185 -0.38393524 -0.010556299
0002e0 96 78 3c bd a3 9f 6e 3d 05 c7 10 3f e4 96 9d bd
       -0.046013437 0.05825771 0.5655368 -0.07694796
0002f0 3f 31 85 3e 58 75 1f 3e 9b 89 1b bc ab 08 26 3a
       0.26014134 0.15572107 -0.009493257 0.0006333689
000300 58 0a 10 3e 37 4b 9c 3e 72 63 91 bd 13 89 8b be
       0.14066446 0.30526134 -0.07099046 -0.27253017
000310 91 ba 26 3e c2 2b 0e 3f 31 f4 8d be 53 f6 be 3c
       0.16282107 0.5553552 -0.27725366 0.023310816
000320 1a bc 60 bd ce ba 69 3e 72 3d 82 3e 0a 64 6d be
       -0.054866888 0.22825167 0.25437504 -0.23182693
000330 61 08 d8 3e 2d 93 33 3e da a3 a1 bd 96 1e 9a 3e
       0.42193893 0.17536612 -0.0789258 0.3010146
000340 6d 9e ab bd 56 36 16 3d 6e 58 19 bf 3c 4c 56 be
       -0.08379827 0.036672913 -0.5990056 -0.20927519
000350 cb de e3 bc 8d 59 ac 3d de 66 d6 3d 67 fb 0b be
       -0.027816197 0.08415518 0.10468839 -0.13670121
000360 68 10 3e 3f 4e df 22 3e 03 56 45 3d 56 74 42 3e
       0.74243784 0.15905496 0.04817773 0.18989691
000370 12 b9 9a 3e a8 38 94 3e 70 59 89 be 00 26 f0 bd
       0.30219322 0.28949475 -0.26826048 -0.11725998
000380 fb 8b a7 3e cc 1b 20 bf 51 e5 56 be b7 cc f9 3d
       0.32723984 -0.62542415 -0.20985915 0.121972494
000390 f0 61 18 3e 34 3d bd 3e d8 e9 32 3e 5c 89 3e 3d
       0.1488111 0.36960757 0.17472017 0.046517715
0003a0 63 76 d1 3d fb a7 8e 3e 6d 74 e7 bd a0 66 3f be
       0.102276586 0.27862534 -0.11301503 -0.18691492
0003b0 d0 39 7b bd 5a fe 57 3d d3 1a 28 be 46 c0 b0 be
       -0.06133443 0.052732803 -0.16416483 -0.34521693
0003c0 a0 cb a5 bd a7 e2 c3 3d 59 80 80 be bc 7e b1 bd
       -0.08095479 0.09564715 -0.25097921 -0.08666751
0003d0 55 7c 0a 3d a2 dd 96 bd a1 06 8c 3e 33 55 f5 bd
       0.03380998 -0.07366492 0.27348807 -0.11979141
0003e0 d1 1d da bd 44 dc 0b 3f 57 ff 85 be a6 48 c8 be
       -0.10650218 0.54632974 -0.2617137 -0.39117926
0003f0 38 82 9e bd d2 48 09 bc c4 ce b8 bd 8f e5 cd 3d
       -0.07739681 -0.008379178 -0.090238124 0.100535505

conv2.in1.weight f4 [32]
000000 79 b1 73 3f 8e 89 44 3f 38 62 c6 3e a6 7e a5 3c
       0.95192677 0.7677239 0.3874681 0.020201992
000010 b0 7e 4c 3f 57 1f 9e 3d 22 66 1f 3e 32 84 a2 3c
       0.7988081 0.07720821 0.15566304 0.019838426
000020 b1 da 80 3d 9e 42 e1 3c 2a dc e2 3d 38 1f ef 3e
       0.06291712 0.027497586 0.11077149 0.46703506
000030 09 ec 08 3e bb aa d3 3e 91 90 a5 3e 4e 4a 80 3e
       0.1337129 0.41341195 0.32336858 0.2505669
000040 6a fb 62 3d d5 46 13 3e 42 97 fd 3e 97 13 c6 3c
       0.05541555 0.14382489 0.49529463 0.024179263
000050 03 b7 0c 3d fa 1f 68 3e 42 b1 61 3f f9 47 8c bd
       0.03435422 0.22668448 0.881611 -0.06849665
000060 78 f9 82 3e ba 76 66 3e 75 98 17 3e f8 1b c6 3e
       0.25580955 0.22506228 0.14804251 0.38693213
000070 78 9c 5b 3d c7 b7 0e 3d 46 92 90 3d 55 24 4b 3f
       0.053616017 0.034843232 0.070591494 0.79352313

conv2.in1.bias f4 [32]
000000 d1 ba 04 bd 71 3f 04 3e 30 cf ef 3e 6f ac 0a 3e
       -0.032404725 0.12914826 0.4683776 0.1354234
000010 4e e8 f2 3d 47 c9 0f 3f 58 bf a3 3e 87 a0 55 3f
       0.11860715 0.561665 0.3198192 0.8344807
000020 50 fb 6d 3f 6d 09 b7 3e 05 11 8c 3e 3d 19 d7 3e
       0.929616 0.3574938 0.27356735 0.42011443
000030 62 ab db 3e 6b 65 0a 3e 55 05 43 3e 7c 1a 2e 3f
       0.42904192 0.1351525 0.19045003 0.6800916
000040 f4 f4 a2 3e db d3 ab 3e 4d 45 03 bf 60 ec 34 3f
       0.3182751 0.3356007 -0.5127762 0.7067318
000050 12 da 4e 3e 0e 14 ee 3e c8 ba d2 be 66 78 3b 3f
       0.20200375 0.46499676 -0.41158128 0.7323059
000060 af f0 53 3e a1 ab d7 3e 8d 28 c3 3e db 19 df 3e
       0.20697282 0.4212313 0.38116875 0.43574414
000070 f7 65 53 3f cd a4 49 3f 2c c3 60 3f f4 1c 2e 3f
       0.8257746 0.7876709 0.8779781 0.6801293

conv2.conv2.weight f4 [32, 1, 3, 3]
000000 75 49 ac bc b8 25 2a be a8 79 5b be 57 98 10 be
       -0.02103112 -0.16615951 -0.21433127 -0.14120613
000010 31 09 63 bf 33 59 69 be 8b c9 2e bc 30 c3 4d bd
       -0.886859 -0.22787933 -0.010668169 -0.050234973
000020 00 5b 93 3c 95 0a 60 bd da 4c 4e 3b fd 70 f8 3e
       0.017987728 -0.05469759 0.0031478913 0.48523703
000030 5f 5e 43 be 4a 2a 4a 3e 87 7f a9 3e af 12 d0 bd
       -0.19078968 0.19742694 0.33105108 -0.101598136
000040 ab d6 95 3e fb 53 f7 3d d1 96 c9 bd 37 8b e0 3d
       0.2926534 0.12076565 -0.09843219 0.10964053
000050 82 a0 f2 3e ed 98 31 3e 0c 52 9f 3e 97 6e f9 3e
       0.47388083 0.17343493 0.31117284 0.48717186
000060 5c 4d c3 bd 32 b9 3b 3d 52 f2 cf bd d7 b2 d9 3d
       -0.095362395 0.045830913 -0.10153641 0.10629814
000070 14 d0 5d 3c c6 d8 27 be 45 64 85 3e e9 6b f0 3d
       0.013538379 -0.16391286 0.26053062 0.11739332
000080 62 84 b1 be e1 b3 1e 3e 3f 5c 82 3d 2e ba 71 be
       -0.34671313 0.15498306 0.06365251 -0.23606178
000090 e9 40 c6 3d 16 54 26 bd 45 df 2d be 4d cb d4 3e
       0.096803494 -0.040607534 -0.16979702 0.41561356
0000a0 58 3c 96 3b d5 88 8d be b0 23 87 3e 04 bd 61 3d
       0.0045848303 -0.27643457 0.26394415 0.0551119
0000b0 d5 e4 50 be 14 a4 47 be 8c 69 c4 be 3c 81 6b be
       -0.20399792 -0.19496185 -0.38361776 -0.22998518
0000c0 f6 08 98 3d 93 22 f7 3d 48 3b ab 3d 03 04 d2 3d
       0.07423584 0.120671414 0.083609164 0.102546714
0000d0 96 3f 9a 3e 3b ca 0a 3e 05 22 4d 3e 34 f2 89 be
       0.30126637 0.13553707 0.20032509 -0.269426
0000e0 3e aa 7a be b2 71 2a 3e e2 4f be be d8 41 8d be
       -0.24479005 0.16644934 -0.3717032 -0.27589297
0000f0 d9 28 ca bc 84 c5 32 be 30 91 9d bd 2e 9a 84 bd
       -0.02467768 -0.17458159 -0.07693708 -0.0647472
000100 39 61 98 be 73 6b 5a 3e c4 58 5d be 06 fb f1 3e
       -0.29761675 0.21330051 -0.21615893 0.47261828
000110 b4 56 9b bd 03 59 a2 3d b0 b1 88 3c b6 d7 14 be
       -0.07584897 0.07927134 0.01668629 -0.14535412
000120 22 3a 83 be 49 ad fa be 18 2c 85 3d 03 23 35 be
       -0.2563029 -0.4896033 0.06502551 -0.17689137
000130 88 bd ea be d1 23 db bd 19 80 2e 3e ae 4e 5f 3e
       -0.45847726 -0.10700191 0.17041053 0.21807358
000140 cc a1 ef bc c8 63 69 bd 88 94 9c 3d 93 a3 8f bd
       -0.029251955 -0.056979924 0.076455176 -0.07013621
000150 e9 59 e7 bc 90 ae d2 3e ee ea d0 be bc 50 d1 bd
       -0.028241115 0.41148806 -0.40804237 -0.10220477
000160 24 b4 96 3e 26 81 cf bd 6c 1c 03 3e a6 b9 aa be
       0.2943431 -0.10132055 0.12803811 -0.33344764
000170 a8 2d 38 3e de ea 4e 3e f6 01 d7 be c7 53 68 3e
       0.17986166 0.20206782 -0.41993684 0.22688209
000180 f4 ad 82 3d 7a ce b7 bd 9b f0 4e 3d b3 80 f8 bd
       0.06380835 -0.08974929 0.050522428 -0.121339224
000190 31 21 84 bd 4d 61 35 bd ff b3 e7 be 8a ec d1 be
       -0.06451643 -0.044282246 -0.45254514 -0.41000777
0001a0 e7 90 01 be 57 26 31 be 35 96 6f bc 50 d6 a6 be
       -0.12652932 -0.17299782 -0.0146232145 -0.32585382
0001b0 f3 8b 90 3e b0 dc 8a 3e 59 b1 05 be 6b f0 1c bc
       0.28231773 0.27121496 -0.13055934 -0.0095788045
0001c0 c0 06 1d 3f b1 3f 84 bc f8 1a 87 be ec c7 cb ba
       0.61338425 -0.016143652 -0.26387763 -0.0015547252
0001d0 ac 2a f1 ba 0d af 06 be 6c 30 99 be 30 22 59 be
       -0.0018399558 -0.13152714 -0.29919755 -0.21204448
0001e0 e3 a0 30 bd f6 bb 11 bf 8f 88 35 be 59 df 18 be
       -0.043122184 -0.5692743 -0.17727874 -0.1492895
0001f0 5c a5 67 be a6 75 bc 3c 5d 27 0a bd 07 d4 7f be
       -0.22621673 0.023005318 -0.033728946 -0.24983226
000200 98 ab de bc 4a 0c 92 be 19 12 4e bf 1d 83 e6 bd
       -0.027181432 -0.28525 -0.80496365 -0.112554766
000210 2b b5 92 bd 1f 16 56 be c0 47 ad 3d 9e 0c 00 3f
       -0.07163461 -0.20906876 0.08460951 0.5001925
000220 2d 3c d1 bd 11 49 ee bc 99 2b ac 3e 96 2a af 3e
       -0.10216556 -0.029087575 0.33627012 0.34212178
000230 fc fc 50 be 71 b5 0f be 1d 0e e5 3d 3b cb 40 3d
       -0.20409006 -0.14034058 0.111843325 0.047068816
000240 8a 8d c2 bd d8 81 61 3e a9 ea a5 bd d2 0d cb be
       -0.09499653 0.22022188 -0.081013985 -0.39658982
000250 97 4e 7c 3e 0e 63 1c 3e eb 19 3d be ab 50 80 bd
       0.24639355 0.15272161 -0.18466918 -0.06265386
000260 c8 45 38 3e 7a de a6 3e 05 da 89 3e 82 f4 f9 bd
       0.1799537 0.3259161 0.26924148 -0.12204839
000270 37 2c 26 3d ac fb 19 3f 70 69 dc 3c 02 21 67 be
       0.04056951 0.60149646 0.026905745 -0.22571185
000280 dd 7e 21 3c 1b 3c 16 bc 61 e8 06 bd df 2a b8 bd
       0.009856907 -0.009169604 -0.032936458 -0.08992552
000290 ba b8 2c bd ae 8b dc bd 2a 71 59 bf aa 44 21 be
       -0.042168356 -0.10768829 -0.849383 -0.1574885
0002a0 f7 5a 3e bd 1a 4f 53 be 9c 2a 0e be 11 da 20 bd
       -0.04647347 -0.20635644 -0.13883442 -0.039270464
0002b0 8a cc 42 be d4 c1 0a be e9 0b 40 3d 5b 13 de 3e
       -0.19023338 -0.13550502 0.04688636 0.43374142
0002c0 10 b3 aa 3e 81 1a f5 bc 68 4d 68 be ac 03 20 be
       0.3333974 -0.029919865 -0.22685778 -0.156264
0002d0 e5 9a 06 be f2 02 a3 be e6 76 4b be 6f 41 0a be
       -0.13145025 -0.31838185 -0.19869575 -0.13501523
0002e0 92 c1 a7 bb 74 c8 85 3d 85 56 75 3e 92 9b b2 3e
       -0.005119511 0.06532374 0.23958786 0.34884316
0002f0 42 bc 2e 3e 84 1c ea bc 07 66 c3 bd 1d 9d 80 3e
       0.17064002 -0.02857805 -0.095409445 0.25119868
000300 15 fc e1 bd 3c f8 a8 3e 3f 4d 64 3e bc aa fa 3d
       -0.11034409 0.33001888 0.22295092 0.12239596
000310 99 4e 25 3e 0a 2d d5 be 79 10 b5 bd a3 a7 08 bc
       0.16143264 -0.41635925 -0.088410325 -0.008340749
000320 32 96 9a bc 5c f9 43 bf 0d 91 1c bf 4d 97 eb bd
       -0.018870447 -0.7655237 -0.6115883 -0.11503468
000330 aa 51 99 bd 54 01 e8 bd c5 e0 8a bd 50 91 1d 3e
       -0.07486279 -0.11328378 -0.06781153 0.15387464
000340 72 26 2d be f3 92 3a bd 97 0a 3f be c3 88 4b bf
       -0.16909197 -0.045550298 -0.18656383 -0.79505557
000350 e4 4b b2 3d 05 5d 4b be dc 07 55 3d 56 a2 ed 3d
       0.08705881 -0.19859703 0.05200945 0.11603229
000360 cf 1e 4a bd 4c 33 07 bf c6 29 b1 be 31 e1 ee 3c
       -0.049345788 -0.5281265 -0.34602183 0.029160114
000370 cc 44 23 bd 6d 48 a1 bd f9 eb ab 3d f1 52 7b 3e
       -0.03986053 -0.07875142 0.083946176 0.24543358
000380 27 5b 83 3c 86 c5 3f bc 79 54 2f be ea fb 1d bd
       0.016034676 -0.011704808 -0.17122068 -0.038570322
000390 88 c9 bd 3d 3f 9f f8 3e ab 18 55 3e 73 2d eb bd
       0.09266955 0.48558995 0.20810191 -0.11483278
0003a0 44 af b0 be df 2c ce bd e7 18 00 3e b1 d8 bf be
       -0.34508717 -0.10067152 0.125095 -0.3747001
0003b0 a7 4a dd bc 44 10 ee 3d e2 e7 88 3e b3 e8 a9 be
       -0.027013136 0.11624196 0.26739413 -0.33185348
0003c0 45 b5 22 be 9a c2 56 3e dd d0 42 3e a6 b9 6c 3d
       -0.15889461 0.20972672 0.19024988 0.057794236
0003d0 be be 51 3e 11 60 5d bd 07 a7 84 be 92 77 3d 39
       0.20482919 -0.054046694 -0.25908682 0.00018068988
0003e0 be 4f f0 3d 16 99 b2 be 18 54 98 bd 82 7a 05 3f
       0.117339596 -0.3488242 -0.074379146 0.5214006
0003f0 82 07 05 bd 07 88 24 3e a8 74 89 3d 1e 90 97 be
       -0.032477863 0.16067515 0.067117035 -0.2960214

conv2.in2.weight f4 [32]
000000 c4 ff 13 3f 6c b6 d7 3e 86 b2 3e 3e 25 9d 5a 3f
       0.5781214 0.42131364 0.18622789 0.85396034
000010 d0 10 a7 3e ae 62 35 3f f6 0d 32 3e 0f 47 2f 3f
       0.32630014 0.708537 0.17388138 0.684678
000020 1c 2d c9 3e 32 d1 0b 3f 21 85 b0 3e bc e5 ba 3e
       0.39292228 0.5461608 0.3447657 0.36503398
000030 93 4b 12 3f f7 9b 97 3e e3 09 18 3f 77 a8 d2 3e
       0.5714657 0.2961118 0.59390086 0.41144153
000040 20 df 20 3f d5 d8 f8 3e 8c 3e d7 3e 6d 62 4b 3f
       0.6284046 0.4860293 0.42039907 0.7944706
000050 dc 83 3c 3f 78 2a ea 3e 6a c6 18 3f d6 fe f0 3e
       0.736387 0.45735526 0.59677756 0.47069424
000060 3f 6c e0 3e d8 b3 32 3f 14 18 09 3f 7b 5f 9a 3e
       0.43832585 0.6980567 0.53552365 0.3015097
000070 96 ba ae 3e a3 eb c1 3e ae a6 95 3e 12 58 ac 3e
       0.3412673 0.3787509 0.2922873 0.33660942

conv2.in2.bias f4 [32]
000000 1b 2c 9a be 81 73 50 3e 73 00 7c 3e b0 c2 d1 3e
       -0.30111775 0.20356561 0.24609546 0.40968847
000010 0f 7b e3 3d 6d b1 b0 3e bc 77 22 3f 87 00 c2 3b
       0.11107456 0.34510365 0.6346395 0.005920473
000020 9e 4e 0b 40 af ff a4 3e 8e d2 d2 3f 82 2c f8 bd
       2.1766734 0.3222632 1.6470506 -0.12117864
000030 d7 24 33 be a5 0e 5a 3d b1 0f 0a bf c7 84 bf 3f
       -0.17494522 0.053236622 -0.53930193 1.4962395
000040 7d a3 3c 3e 06 33 17 3e a9 bc e4 bd 67 7c 3d 3e
       0.18421741 0.14765558 -0.111687966 0.18504487
000050 1a 4d 95 3e 04 1d 5e 3f 1c 55 76 be 32 42 d9 bd
       0.29160386 0.86763024 -0.24055904 -0.10608329
000060 c1 27 83 3e 87 b3 a3 3e 97 5b ba bc bb 06 f1 3e
       0.25616267 0.31972906 -0.022748752 0.47075447
000070 ff 29 14 40 8b 41 8f 3f 2f 13 f5 3f c9 d1 1e 3e
       2.3150632 1.1191877 1.9146479 0.15509714

conv2.conv3.weight f4 [64, 32, 1, 1]
000000 20 91 43 be 3b 4d 25 3e 62 99 6b bd eb 89 9a be
       -0.1909833 0.16142742 -0.057519324 -0.30183348
000010 6f 72 87 bd f3 57 7c bf 96 c1 9e be f0 2a 47 bd
       -0.06613623 -0.985717 -0.3100707 -0.048624933
000020 72 cd f7 3d c6 26 fb 3c 86 05 e8 3e 99 07 91 3d
       0.120997325 0.030658137 0.45316714 0.07081527
000030 92 f3 27 be 86 55 08 3e dc e8 14 3e ad 87 2a be
       -0.16401508 0.13313875 0.14541954 -0.16653319
000040 5e 68 15 be 60 c9 ea bd f1 3a e4 bd f7 ea 90 be
       -0.14590594 -0.114641905 -0.11144055 -0.28304264
000050 33 de 82 3d b2 59 ef 3c db 04 0c 3c 91 e1 d9 3d
       0.063900374 0.029217575 0.0085460795 0.106387265
000060 9a 23 9d 3e c9 84 1c 3e 8b f1 49 3e 1c 6a b8 bd
       0.30691224 0.15285029 0.19721048 -0.09004614
000070 46 10 8c 3d da a1 d4 be c8 7b ce 3d d7 ba 3b be
       0.068390414 -0.41529733 0.10082203 -0.18332992
000080 af de d3 3d be 53 ad bd 64 73 3c 3e 6e f4 3c be
       0.10345208 -0.08463238 0.18403393 -0.18452618
000090 15 55 3f 3e 66 3f e5 3d db b1 9b 3e 4d 04 e6 be
       0.186848 0.11193733 0.3040913 -0.44925156
0000a0 65 3a cb be 0f 5f 67 be d2 6b 06 3e 7c eb 76 3e
       -0.3969299 -0.22594856 0.13127068 0.24113268
0000b0 23 16 a7 bd 39 53 60 3e a2 74 c3 3e d7 90 de 3d
       -0.08158519 0.21906747 0.3817492 0.1086747
0000c0 69 ef 51 be 1e 68 84 bc b7 b5 66 3d b3 68 44 3e
       -0.20501484 -0.016162928 0.05632564 0.19180565
0000d0 84 bd a9 3e 67 64 f9 3e 70 ea f3 3c ab b1 90 be
       0.331524 0.48709413 0.029774874 -0.2826055
0000e0 52 66 63 bd 06 36 cd bd f0 c9 a0 3e d0 19 1a be
       -0.055517502 -0.1002007 0.31404066 -0.15048909
0000f0 8e 44 fd 3e 5e 5c 09 be 98 36 00 3f 25 2c 95 3d
       0.49466366 -0.13414142 0.50083303 0.072838105
000100 e6 6d 68 bd 0f 81 80 bd 9c 56 12 be 59 ce 25 3e
       -0.056745432 -0.06274616 -0.14290851 0.16191997
000110 df 3e 93 3e 69 f7 31 bd e6 a7 e6 bb 52 c0 66 bc
       0.28758904 -0.04344884 -0.007039058 -0.014083939
000120 72 ee 2f 3e cb 06 8d 3e be 31 fd bc d1 ef 46 3e
       0.17180803 0.27544245 -0.030907508 0.1942742
000130 c3 72 07 3e 38 d7 e5 3d 36 a8 0a 3e 54 92 a3 3e
       0.13227372 0.1122269 0.1354073 0.31947577
000140 96 69 b2 3d 80 90 93 be c0 07 c6 3e dd d7 71 3e
       0.08711545 -0.28821182 0.38677788 0.23617502
000150 a9 4f 09 3f 61 fa c7 3e 1c 25 b3 be 98 e3 bc 3d
       0.53637177 0.3905821 -0.3498925 0.092230976
000160 3f 3f 97 3c 71 f5 b1 3e 47 9c c5 3e 30 12 70 bd
       0.018462775 0.3475757 0.38595793 -0.058611095
000170 d1 87 80 be af 46 86 3e ea 2b 25 3f 24 52 74 3b
       -0.2510362 0.26225802 0.6452013 0.0037280405
000180 87 9f 7b 3d fd 9c ac 3e 95 4d 5a 3e 52 74 e6 bd
       0.061431434 0.33713523 0.21318658 -0.11252655
000190 7f c0 8d be 3a d4 34 3e da 5e ba be cf 34 43 bd
       -0.27685925 0.17659083 -0.3640049 -0.047657784
0001a0 7d d1 e0 be db c6 27 3e 8b 36 70 3e d9 0c 80 be
       -0.43909827 0.16384451 0.23458306 -0.25009802
0001b0 07 8d 9b be 0d 3e 0d bd 72 8b 87 be 26 c2 74 be
       -0.30381033 -0.034483004 -0.26473576 -0.23902187
0001c0 3f 67 6e 3e 70 8b 8e 3e c9 05 0e 3e b5 8b 6d 3e
       0.23281573 0.27840757 0.13869394 0.23197825
0001d0 fb 5f c3 be 06 dc c4 be 6f 08 e0 bd ff 6d ef 3d
       -0.38159165 -0.38449115 -0.109391086 0.11690902
0001e0 aa 0f 9e 3d 12 27 91 3d 8f 07 1f 3e 0d f0 30 be
       0.077178314 0.0708753 0.15530227 -0.17279072
0001f0 0c ae 54 be df e2 ac be f6 1c dd 3c a7 84 46 bc
       -0.20769519 -0.3376684 0.026991349 -0.012116588
000200 dd 1d a6 3d 52 79 61 3d 7c 91 5b be 66 4c 66 be
       0.08111165 0.05504734 -0.21442217 -0.22490081
000210 e3 83 76 be b6 97 61 3e e6 0d 9e 3e bb 9d 64 3e
       -0.24073748 0.2203053 0.3086998 0.22325794
000220 7e 8c 48 3d 1c 2c 1b 3f 06 b8 82 bd 0a a7 f7 3d
       0.04896211 0.6061418 -0.06382756 0.12092407
000230 3b f0 84 3e fc 50 b4 bc 48 f4 9d be 8e 6e e8 bd
       0.2596453 -0.022011273 -0.30850434 -0.11349212
000240 ed aa f8 3e 9b 89 ab be e6 cd 76 be a5 2a 06 3e
       0.48567906 -0.33503422 -0.24101982 0.13102205
000250 bc 0b f6 3d a7 f3 53 3d 60 7a 4a 3e 29 b4 d8 3d
       0.12013957 0.051746037 0.19773245 0.10581238
000260 f9 a5 56 be aa 76 16 3e 93 38 34 3e 9e 99 10 3e
       -0.20961751 0.14693704 0.17599706 0.141211
000270 08 2a 96 3e de 14 32 be 65 bc 0c bf 7b b3 55 bd
       0.29328942 -0.17390773 -0.5497497 -0.05217312
000280 c9 a4 a8 3c 4c 75 b8 bc 0b c9 b8 be c7 cc fa bd
       0.020586388 -0.022516869 -0.36090884 -0.122460894
000290 f3 57 2f be ff a2 d4 be 18 d8 52 3d d5 88 13 be
       -0.17123394 -0.41530606 0.051475614 -0.14407666
0002a0 da de 80 3e 8d 36 1f bc 88 22 09 be 49 9d 4b 3e
       0.25170022 -0.009717596 -0.13392079 0.19884218
0002b0 81 5c b8 3e 18 03 29 3f 8d 87 62 3e 28 42 9a be
       0.36008075 0.66020346 0.22122021 -0.30128598
0002c0 2f ab 21 3e 0e fe 17 bf db 4b 1f bd 9c b0 5f be
       0.15787958 -0.5937203 -0.0388907 -0.21844715
0002d0 e9 ba 8b bb a1 8f 7f 3e 07 fe 55 3c be 90 bc bc
       -0.004264225 0.24957134 0.013061053 -0.023018237
0002e0 23 4c 95 be 73 ee 96 3e 5c ab 0a be 4e 32 81 3e
       -0.2915965 0.29478797 -0.13541931 0.25233692
0002f0 55 8d e3 bb 09 77 28 3e ab da 38 3e 1d 33 41 bd
       -0.0069443383 0.16451658 0.18052165 -0.047167886
000300 49 66 2a 3f 58 f3 37 bd 98 0f a8 3d 65 25 86 3d
       0.66562325 -0.044909805 0.08206099 0.06550101
000310 b9 ec 60 bd bb c7 36 bf 88 09 3c 3e 8f 7a 77 3e
       -0.054913256 -0.71398515 0.18363011 0.24167846
000320 08 37 7b be c6 4a d0 3c e8 20 27 be 17 37 15 3d
       -0.24532712 0.02542628 -0.16321146 0.03642949
000330 8a b5 f2 bd c6 5d 00 3e 6a d8 fc 3d a1 62 e6 bd
       -0.11851032 0.12535772 0.12345965 -0.11249281
000340 1d 19 b3 3d 90 22 43 3e 90 f3 ea 3e 18 c0 5c be
       0.08745024 0.19056153 0.45888948 -0.21557653
000350 e8 59 ef 3e ee 6d ec bd 73 c4 83 3e 3b cf 66 bd
       0.4674828 -0.11544405 0.25735816 -0.056349974
000360 ac cc e3 be 88 c4 6c 3e 68 e1 17 3d 33 40 67 bd
       -0.4449209 0.23121846 0.0370802 -0.05645771
000370 4d a7 9b 3c 0d 8e 72 3e 14 b1 04 3f f9 01 7c bc
       0.019000674 0.23687 0.518327 -0.01538133
000380 ac 8c d6 3e ae b5 cb bd ba 67 50 3d 49 3b cd 3e
       0.419042 -0.09946762 0.05088017 0.40084293
000390 28 60 82 3e 8b c4 4a be 5b 8a fa 3d 7f b8 be bd
       0.25463986 -0.19801538 0.122334205 -0.093125336
0003a0 e2 56 07 3f be 92 e9 3d d6 72 ae bd 03 a4 be 3e
       0.5286695 0.11404942 -0.08517997 0.37234506
0003b0 1c 04 9a bc 4b 1c e9 bd 70 b6 41 3e 13 52 57 3e
       -0.018800788 -0.113823496 0.1891725 0.21027403
0003c0 8a 74 c6 3d 3f d3 92 3d 90 d9 02 3e fb 3e 46 bd
       0.09690197 0.07169198 0.12778306 -0.048399907
0003d0 eb 72 f6 be 4e 26 a1 be 2b b4 ab 3d 67 bd c8 be
       -0.4813455 -0.31474537 0.08383974 -0.39207003
0003e0 34 49 13 3e cf a6 2e bd d5 46 c1 3d 10 04 9b be
       0.14383394 -0.04263955 0.09437338 -0.30276537
0003f0 8e 97 d2 3e 76 24 5f 3e ee d5 11 3d e4 a2 c2 3c
       0.41131252 0.21791252 0.03560441 0.023759313

conv2.in3.weight f4 [64]
000000 ab 54 2e 3f 5a d5 e8 3e 88 58 08 3f b0 7a 85 3f
       0.68097943 0.45475274 0.5326009 1.0428066
000010 f8 ba 67 3f 0f 30 13 3f 92 5b 36 3f 9d 3c 36 3f
       0.90519667 0.57495207 0.71233475 0.7118624
000020 0f 59 37 3f 86 c1 e0 3e a2 3a 27 3f a0 4a 65 3f
       0.7162027 0.43897647 0.6532384 0.89566994
000030 93 a5 4b 3f 97 36 33 3f 28 42 4d 3f aa 87 f3 3e
       0.7954952 0.7000517 0.8017907 0.4756444
000040 eb 62 07 3f 30 f1 ce be 2e 6b 0b 3f 1f 06 3d 3f
       0.5288531 -0.40418386 0.5446042 0.73837465
000050 39 2b b9 3e b3 d9 c2 3e 2f 8b 4a 3a 43 54 b7 3e
       0.3616579 0.38056716 0.00077264284 0.35806474
000060 44 ea f6 3e db d8 21 3e c1 60 46 3f 61 1a 36 3f
       0.48225605 0.1580538 0.77491385 0.71134
000070 6b 96 b3 3e 43 89 61 3f 71 f9 b2 3e 20 8f 4d 3f
       0.35075697 0.8810007 0.34955934 0.80296516
000080 fd 66 4b 3f 6e 83 b4 3e 6e d4 ac be c1 5b 2b 3f
       0.7945402 0.35256523 -0.3375582 0.6693688
000090 80 27 a0 3e fe 83 56 3f 64 7b b9 bd 02 ba a2 3e
       0.31280136 0.83795154 -0.09056738 0.31782538
0000a0 fc 35 f4 3e 81 9f 85 3f 4d f0 b1 3e be 2d 51 3f
       0.47697437 1.0439302 0.34753647 0.8171042
0000b0 ec 08 fc 3e 67 ef 5c 3f 9f 35 1b 3f 8f 11 2a 3f
       0.49225557 0.863028 0.60628694 0.6643304
0000c0 23 d9 33 3f f2 f9 16 3f ef 4f 18 3f e4 e2 fc 3e
       0.702532 0.58975136 0.5949697 0.49391854
0000d0 4d 3b 14 3f 45 e5 4d 3f ed 61 29 3f ac 92 bf 3e
       0.57902986 0.8042796 0.6616505 0.3741659
0000e0 de 34 02 3f a5 b7 c4 be 93 32 dc 3e 71 3f d5 3e
       0.5086192 -0.3842136 0.43007335 0.41649964
0000f0 c4 da ac 3e 1a 3a 72 3e e5 38 01 3f c0 9f 86 3e
       0.33760655 0.23654976 0.5047744 0.26293755

conv2.in3.bias f4 [64]
000000 07 7e 0c be af c9 3a be 54 5e 32 be ed c9 37 3e
       -0.1371995 -0.18240999 -0.17418796 0.17948122
000010 af 76 24 3d a6 15 ac 3d 05 57 d7 3c aa 15 db bd
       0.040152248 0.084025666 0.026286611 -0.106974915
000020 f9 0e be 3d d9 31 8f 3d ab f2 e5 3d 7b 83 0b be
       0.092801996 0.069919296 0.11227926 -0.13624375
000030 d3 74 fe 3d 50 1e 09 be db 38 49 be b3 1b 19 bd
       0.12424626 -0.1339047 -0.19650595 -0.03737993
000040 93 38 2d be 8f 68 b9 bd 66 7a 96 3c 5b 07 92 be
       -0.16916113 -0.09053146 0.018368911 -0.28521237
000050 35 83 8c bd 92 0f e2 bc a0 56 1c bd 52 ca a7 3d
       -0.06860963 -0.027595315 -0.03816855 0.081928864
000060 78 b2 9d be e2 c3 db bd 56 7f d3 3d 2e 11 e3 be
       -0.30800223 -0.10730721 0.10327022 -0.44349045
000070 b5 93 5f be 36 04 98 3e 09 8c 81 bd 37 d4 f2 be
       -0.2183369 0.29690713 -0.06325538 -0.47427532
000080 34 1f 70 be 31 80 c6 3e 4e e2 10 bc 74 a4 1f 3e
       -0.23449403 0.38769677 -0.008843018 0.15590078
000090 77 08 c4 bc 3f b9 99 be 8c a8 97 be ea 83 c1 be
       -0.023929818 -0.30024144 -0.2962078 -0.37795955
0000a0 cd d3 9a 3d 5e 17 c1 bd 0c 61 fb bd 70 e8 75 be
       0.07559929 -0.09428285 -0.122743696 -0.24014449
0000b0 57 8e f1 bd 4f 07 a0 be e7 dd 32 3d 32 b0 e2 be
       -0.11794727 -0.31255576 0.043668654 -0.4427505
0000c0 8b 76 0e be a2 ce 9a be a6 56 c4 be 90 4d 26 be
       -0.13912408 -0.30235773 -0.38347358 -0.16240525
0000d0 19 01 31 3e f6 95 af 3b 81 75 5e 3e ea 89 93 3c
       0.17285575 0.005358453 0.21724512 0.018010098
0000e0 1a 4e 4a be de 61 99 be c1 9c b8 bd 21 bf e9 3e
       -0.19756356 -0.2995748 -0.090142734 0.45653632
0000f0 58 e3 27 3e 3d cb fe be 66 b5 99 3c 49 26 1e be
       0.16395319 -0.49764434 0.018763255 -0.15444292

conv3.conv1.weight f4 [64, 64, 1, 1]
000000 97 19 40 3f 56 8c ac 3d 4b 80 91 3d ce de 5d be
       0.75039047 0.084252045 0.07104548 -0.21667024
000010 cd a9 19 3b 47 34 95 3e 87 6b f8 3e 6a 9d b6 be
       0.0023447156 0.29141447 0.48519537 -0.35666972
000020 62 0b a5 bc f1 00 3b be 2a a8 0e 3e 97 79 4c 3e
       -0.02014703 -0.18262078 0.13931337 0.19968258
000030 44 00 fd be e0 77 4e be 8f fa 05 3f 51 50 7e be
       -0.49414265 -0.20162916 0.5233545 -0.24835326
000040 98 52 96 3c 5e 78 66 bd 39 b5 6f be 54 d1 d8 3d
       0.01834993 -0.056267135 -0.23408975 0.10586801
000050 02 e9 21 3f 78 65 47 be 98 fa a3 bd 93 b9 17 3e
       0.63246167 -0.19472301 -0.08006781 0.14816885
000060 1d 03 0f be bc 25 6c 3c 53 cb 87 3d 3d 7e d8 be
       -0.13966031 0.014413293 0.06630578 -0.42283812
000070 e0 77 b9 3e 73 5a 54 3e bb 4c 3f 3c 9c 87 d0 3b
       0.3622427 0.20737629 0.011676009 0.006363822
000080 11 dc 94 be 74 32 bb 3d 43 8a b3 3e 90 12 0b 3e
       -0.29074147 0.091404825 0.35066423 0.135813
000090 c5 3d 22 3e 55 1c 84 be fb 9d 9e 3d 3f 0a 11 3d
       0.15843876 -0.25802866 0.07744976 0.035410162
0000a0 ef 43 12 be 24 5e 47 bd 98 6a 2c bf f5 fa ef 3d
       -0.14283727 -0.048673764 -0.6735015 0.11717788
0000b0 85 6f 40 bd fd 07 6b be d1 15 3e be 6d 80 79 be
       -0.046981353 -0.22952266 -0.1856301 -0.24365397
0000c0 68 4c 23 3e b7 6d 84 3e 80 23 61 be 95 7e 6f 3d
       0.15947115 0.25864956 -0.21986198 0.058470327
0000d0 e7 53 15 bd 2b a2 ae 3d ef a9 be 3e e0 b9 a3 3e
       -0.03645697 0.08527025 0.37239024 0.3197775
0000e0 93 69 ac 3e 8b 86 d3 bd c9 04 b0 3e 93 42 ab 3d
       0.33674297 -0.103283964 0.3437865 0.083623074
0000f0 e0 59 44 be 06 d3 4e 3e 0f fd 84 bd c9 3c 5f be
       -0.1917491 0.20197687 -0.064935796 -0.21800531
000100 d8 43 c5 3c d7 f2 8e 3e 09 e5 f3 3e 46 ed 55 be
       0.024080202 0.27919647 0.47635677 -0.20891294
000110 d2 0d e0 3e d3 67 a2 3e 97 29 45 3e 0a 25 e1 3e
       0.43760544 0.31719837 0.19254147 0.4397357
000120 73 d8 ec 3b 1c 2f 77 3d 6f ef ae 3e 23 08 99 3c
       0.007227951 0.06034766 0.34167048 0.018680638
000130 ea 7c 3c 3e 2e 21 ac 3e b4 bd ba bc b5 cd 42 bc
       0.18407026 0.33619064 -0.022795536 -0.011889865
000140 3a d9 a1 3d f7 ed ba be 5d be bc bc dc 2f 40 bd
       0.07902761 -0.36509678 -0.023039991 -0.046920642
000150 e8 d0 85 bc 7e c8 8c bc 9d 5e ed bc 3b 28 2e be
       -0.016334966 -0.017185446 -0.02897578 -0.17007534
000160 f4 6c fd bc c0 7e 6a 3e 59 9c f1 be 7d e2 cf bc
       -0.030935742 0.22899914 -0.47189596 -0.025376553
000170 01 15 04 3e e9 f9 26 3c cc 54 26 be 19 28 dc 3d
       0.12898637 0.010191419 -0.16243285 0.107498355
000180 55 95 7c be 0c 14 2e bd 4a 90 c4 be 13 6f 80 3e
       -0.2466634 -0.042499587 -0.38391334 0.25084743
000190 75 89 db 3d e1 7e 41 be f2 73 b6 3b 27 0e 27 bd
       0.10719577 -0.18896057 0.005568021 -0.04078498
0001a0 3a c1 08 3e de 9e 9b be 9c 75 b6 3e 1c b7 a0 3e
       0.1335496 -0.30394644 0.35636604 0.313897
0001b0 28 3e 18 bd 98 c2 a8 3b 54 a9 04 3e fd 06 8f be
       -0.03716865 0.0051501505 0.12955219 -0.2793502
0001c0 49 e9 13 3e b0 75 54 3d 45 ad c6 3c 37 3e 85 be
       0.1444446 0.051870048 0.024252543 -0.2602403
0001d0 a3 b8 84 be 79 13 ba be 75 19 dd 3d 43 93 e6 be
       -0.25922117 -0.3634298 0.10795871 -0.45034227
0001e0 e3 17 60 3e 47 3e cd be 83 6b 83 3e ba 4b 55 be
       0.21884112 -0.40086576 0.25667962 -0.20829669
0001f0 6f 8d b6 3e d5 88 19 3c a9 76 b8 be ba 31 40 be
       0.3565478 0.009371002 -0.3602803 -0.18768969
000200 3c 8d b5 be c1 79 22 bf 4f 63 b2 be 62 1c e9 3e
       -0.35459316 -0.6346703 -0.3484139 0.45529467
000210 0f 3a 87 3e 66 b0 aa bd 29 b2 34 be c4 d8 9a bd
       0.26411483 -0.083344266 -0.17646088 -0.07560876
000220 22 8a 8a bd fc eb 83 3e c6 e7 f2 3d 2a 57 dd 3d
       -0.06764628 0.2576598 0.118606135 0.10807641
000230 bb 4b f4 3d 40 a9 6e be df 95 b4 be 90 35 05 be
       0.11928507 -0.23306751 -0.35270593 -0.13008714
000240 90 7c 82 be 14 94 6a be 73 e4 a0 3e 71 6c f7 bc
       -0.2548566 -0.2290805 0.31424293 -0.030203076
000250 52 f0 a9 bd d5 e5 84 3e 3a a8 82 bd 1c 34 f4 be
       -0.082977906 0.25956598 -0.06379743 -0.47696006
000260 f8 7b e1 bd 32 c4 96 3e bb 2c 93 be 28 18 86 3d
       -0.11009973 0.2944656 -0.28745064 0.06547576
000270 1f e0 ce bd f2 38 f0 3d fd 40 8a bd 1f 86 cc be
       -0.101013415 0.117296115 -0.06750677 -0.39946076
000280 8f 15 0d 3f 2d dc 96 3e 98 93 9a 3d 09 84 1d bd
       0.5511102 0.29464856 0.075476825 -0.038455997
000290 f5 28 0d bf 6c 7a a3 bd 8d 46 b5 3d 41 9e 83 3e
       -0.5514062 -0.079823345 0.08851347 0.25706676
0002a0 3d fb 14 3e d6 70 a8 3d 1b c0 c6 3e bf 38 38 bc
       0.14548965 0.08224647 0.3881844 -0.011243998
0002b0 c0 63 0a 3e 28 ba a1 bd b5 80 f7 3c 0b 9f b5 3c
       0.13514614 -0.078968346 0.03021274 0.022170564
0002c0 3e 9c 6c 3d 46 33 c4 be 5e 18 b9 3d 5f 0e 13 3e
       0.05776619 -0.3832037 0.09037851 0.14360951
0002d0 28 1d da 3d ed f0 68 bd 5a 29 bf be 6b b2 5e bc
       0.10650092 -0.05687039 -0.37336236 -0.013592343
0002e0 4d 5c b2 be d6 90 de be 6e bf 14 3e d7 c1 9c bd
       -0.34836045 -0.43469876 0.1452615 -0.076541595
0002f0 bc 4d 0b 3e 5c e9 93 be 7e 9f 28 3d 45 eb 8e be
       0.13603872 -0.28888977 0.04116773 -0.2791387
000300 38 78 66 be 82 d4 60 3d 1b ec 13 3d 9e cb 99 be
       -0.22506797 0.054890163 0.03611384 -0.3003816
000310 5e f9 90 3b 0c f6 9e 3c 3c 64 20 3d 46 90 e5 3b
       0.004424258 0.019404434 0.03915809 0.007005724
000320 c4 94 3f 3d 41 46 c2 3d 1f 05 21 be df 19 6e 3f
       0.046772733 0.09486056 -0.1572461 0.93008226
000330 de 39 8c be e6 99 5e be 79 6a 51 be 38 20 70 3d
       -0.273879 -0.21738395 -0.20450772 0.058624476
000340 60 25 bd bd 77 20 c3 be 5a 04 29 bf ac 97 8c 3e
       -0.09235644 -0.38110706 -0.66022265 0.27459466
000350 a0 74 50 3d 7c 24 0b bd 0c 1c bd 3c 4f 7c 96 bd
       0.050892472 -0.03397034 0.023084663 -0.07347929
000360 e7 32 44 3e a0 95 7b be b3 3e db bb 96 14 51 3e
       0.19160043 -0.24568796 -0.006690824 0.20418009
000370 6d 6b 89 bd b7 63 bc be 9c 10 0d be ba ee 8b 3e
       -0.06709943 -0.36794826 -0.13775867 0.2733057
000380 b9 32 43 3e 2f 80 0e 3e 72 9c 76 3c b9 f0 92 bd
       0.19062318 0.13916086 0.015051948 -0.071748205
000390 9f a3 19 3e 86 14 10 3f 61 ef 31 3e 95 96 5d 3d
       0.15003823 0.56281316 0.17376472 0.054098684
0003a0 67 12 f0 bd d6 60 03 bd bd f0 1a 3e 87 ba 55 3e
       -0.1172226 -0.03207477 0.15130897 0.20871936
0003b0 7c 1b 72 be 4d b4 9d 3d b9 fa 73 be d9 9c 45 bd
       -0.23643297 0.07700405 -0.23826112 -0.048245285
0003c0 6e b7 a5 be 00 fe 43 be 8a e7 c7 3d 5f 4f db 3d
       -0.32366508 -0.19139862 0.097609594 0.10708498
0003d0 21 92 86 be ee f0 4e 3e ca 3d 0e be 40 8d 1d 3d
       -0.26283363 0.20209095 -0.13890758 0.038464785
0003e0 9e db 19 bd 97 77 f9 3d c5 9d fb 3d fc da b5 3e
       -0.03756296 0.12181013 0.122859515 0.35518634
0003f0 f8 1e a8 be ce 4b 0e bd 3e d3 43 be 52 f7 99 3e
       -0.32836127 -0.03474026 -0.19123551 0.30071503

conv3.in1.weight f4 [64]
000000 4c f8 a3 3f bf 8b 26 3d 0a 01 fc 3e 9f da 47 3f
       1.2810149 0.040660616 0.49219543 0.78067964
000010 ad 5d 8a 3d 55 ef ec 3e 1a 8b 73 3d 72 25 ce 3e
       0.067561485 0.46276346 0.05945883 0.40262944
000020 4c 7f f3 3d 21 71 28 3f c1 e3 0a 3d 54 65 32 3e
       0.11889514 0.6579762 0.03390861 0.17421466
000030 25 e9 56 3d 12 4f 0f 3f 25 0e 90 3d 6a be 93 3f
       0.052468438 0.55980027 0.07033948 1.1542485
000040 17 31 5b 3d 35 a2 6f 3d cf 00 17 3d 75 07 ec 3e
       0.053513613 0.058504302 0.036866006 0.4609944
000050 a4 48 29 3d e3 0b 37 3f 1b a2 e9 3e b5 46 75 3d
       0.04132904 0.7150251 0.4563149 0.059881885
000060 dd aa be 3f 08 19 1d 3e 34 1b da 3d 8d ac fa 3e
       1.4895893 0.1534158 0.1064972 0.4895977
000070 b9 9d 09 3f 08 e9 af 3e 28 d9 e6 3e 71 28 08 3e
       0.5375629 0.34357476 0.45087552 0.13296677
000080 98 16 09 3d 72 e0 3f 3e c1 9a 2f 3f 67 80 45 3f
       0.033468813 0.18737963 0.6859551 0.7714905
000090 59 d2 51 3d 98 fd e5 3e d3 cf 28 3f 45 d9 02 3f
       0.051225994 0.4492004 0.65942115 0.51112777
0000a0 00 18 9c 3e 6b 25 fc 3e b7 6c 93 3e ab 52 10 40
       0.3048706 0.49247298 0.2879388 2.2550457
0000b0 a7 8a 86 3f 7d 83 90 3f eb 3a 8b 3d 7d 50 5d 3d
       1.0511063 1.1290127 0.06798347 0.054031838
0000c0 d1 10 46 3d 83 20 13 3f 50 95 19 3f f9 8d e9 3e
       0.04835588 0.57471484 0.5999346 0.4561613
0000d0 d2 64 ce 3d fc 5f 71 3e 62 3b 1a 3f 2f b1 34 3f
       0.10077824 0.23571771 0.6024686 0.7058286
0000e0 f9 66 5d 3e 71 ff de 3d 28 36 0f 3f cf 4c 98 b8
       0.21621312 0.10888565 0.5594201 -7.2622315e-05
0000f0 e1 37 24 3d ee a4 38 3e b0 86 10 3d d3 b8 95 3e
       0.040092353 0.18031666 0.035284698 0.29242572

conv3.in1.bias f4 [64]
000000 d0 22 c2 bc 1f eb 16 3f 12 6d 7e 3e 17 80 11 be
       -0.02369824 0.58952516 0.24846295 -0.14209019
000010 e6 18 23 3f 49 54 a9 3b 68 46 11 3f 61 2d 88 3e
       0.63709867 0.0051675183 0.56748056 0.2659712
000020 f7 30 e9 3e 0e 12 35 3e 41 e2 ed 3e bf 8e c5 3e
       0.4554517 0.17682669 0.4646168 0.3858547
000030 f3 ac ff 3e c6 99 aa 3e aa 9f cc 3e 84 90 54 3d
       0.49936637 0.33320445 0.39965564 0.051895633
000040 78 4f 59 3f 8b 51 3b 3f 35 c2 fe 3e 10 23 68 3e
       0.84886885 0.731713 0.49757543 0.22669625
000050 dc 35 2d 3f 5b 0c 96 bb 5b 0f 65 3e cd 67 36 3f
       0.6766031 -0.0045791096 0.22369139 0.7125214
000060 47 aa d5 3e 5f d3 f2 3e b1 bb b2 3e 8c 27 9c 3e
       0.41731474 0.47426888 0.34908822 0.30498922
000070 4b 3b 39 3d e9 c9 8e 3e a4 81 3d 3e e9 ab e2 3e
       0.04522256 0.2788842 0.18506485 0.44271782
000080 7d c6 17 3f bc b8 07 3f 01 98 f9 3e e5 e7 a8 3d
       0.59287244 0.5301626 0.48748782 0.08247355
000090 72 89 10 3f e4 99 a7 3e d9 ed a2 3e 34 b0 9f 3d
       0.56459725 0.32734597 0.31822088 0.0779728
0000a0 09 02 01 3f 78 22 eb 3a 31 ce f9 3e 9a af 72 be
       0.5039373 0.001793935 0.48790124 -0.23699799
0000b0 c2 c2 b2 bd ee c4 e9 bc e6 a9 21 3f 52 3a 09 3f
       -0.08728553 -0.028536286 0.6314987 0.53604615
0000c0 d8 39 11 3f 62 5d 89 3d 8f c0 29 3e f7 84 28 3e
       0.5672889 0.067072645 0.16577362 0.16456972
0000d0 cf a4 20 3f 12 d9 9a 3e 56 9c d4 3d 66 ee 37 be
       0.6275148 0.30243737 0.10381381 -0.17962036
0000e0 17 66 30 3f 12 fd ff 3e db 56 89 3e f3 84 87 bb
       0.68905777 0.49997765 0.26824078 -0.004135722
0000f0 fe a0 e6 3e 09 dc e2 3e 49 e8 3f 3f 84 aa 93 3e
       0.45044702 0.44308499 0.74963814 0.2884103
